PoseCorrection/Data/model_class.pt (torch_old, 155634 bytes, 16 tensors)

gcin.weight f4 [25, 32]
0.04551807 0.18840179 -0.08007854 -0.0863486 -0.097896785 0.044416763 0.012788516 0.06160741
-0.05862274 0.03401009 -0.081450485 -0.041174736 -0.030140162 -0.16310845 -0.04272292 0.023359962
0.07788596 0.17546432 -0.12040749 -0.11337571 0.18103413 0.14494331 -0.07320164 0.12675807
-0.10473124 0.025656937 0.13358924 -0.10645499 -0.15316342 -0.05459213 -0.059893083 0.08307224
-0.18628675 -0.06541551 -0.19946523 -0.057715315 -0.010059319 0.06184963 0.07177803 0.11390554
-0.07197911 -0.07539183 -0.01718679 -0.18383877 -0.30724156 -0.13353479 0.09517194 0.049139276
-0.040188838 -0.029267032 0.17645244 0.21305075 -0.014580305 -0.059837993 0.15509886 -0.089570776
0.06112366 0.00803727 -0.109090194 -0.053828865 0.022203702 -0.0060924552 -0.27721712 0.022176314
0.1351853 -0.096238926 0.055058997 0.1381662 0.14656767 0.2730887 -0.24247769 -0.15117532
0.09371183 0.23457065 0.19561633 0.15723805 0.003451775 -0.10233478 0.09450282 -0.2189074
-0.25700313 0.16454652 0.13198416 -0.123000346 0.0061930353 -0.018403312 -0.0031544862 -0.13705166
0.08738306 -0.24720907 0.1400129 0.14925252 0.100628875 0.105435394 -0.10678698 -0.23555571
0.105414905 0.0027622317 -0.12046009 -0.26742333 0.042437978 0.12964363 0.015011224 -0.0045965393
-0.21771951 -0.0669164 -0.07836441 -0.21178065 0.22792092 -0.035356347 -0.073547915 0.14620343
-0.06081517 0.144033 -0.06778574 -0.2474039 0.04971075 0.10661509 -0.049436543 0.13368084
0.012050347 0.05227068 -0.14070177 -0.005229631 -0.19583488 -0.16162126 0.020032963 0.060093712
-0.12457316 -0.11149927 -0.23954836 -0.12740888 -0.23549911 0.0090115825 0.13437344 -0.09397631
-0.16224232 -0.0075335903 -0.057598166 0.12855956 0.26102293 0.07812679 0.19997092 0.034359057
-0.10089816 -0.080902204 -0.10573602 -0.034530245 -0.10993019 -0.15865366 -0.23079328 -0.13634534
-0.0039680363 0.15780973 0.19350283 -0.35181186 -0.05803848 -0.16930735 -0.050441954 -0.09816627
-0.0018837963 0.01607789 -0.22974253 -0.11490117 -0.085204825 0.03365171 -0.091938846 0.11003203
-0.038063448 -0.037265383 0.19520745 -0.02963611 0.0892025 -0.035292692 -0.2509988 0.18397847
0.019708853 0.032927457 0.26838562 -0.115235075 0.0036198203 -0.002982786 0.15561426 0.018084005
0.016573649 -0.057236943 0.0030219425 -0.05510966 -0.085415155 0.13401222 0.23898844 0.17582293
-0.034884248 -0.06714598 0.0061853305 0.08549987 -0.014379661 0.11046847 -0.15963455 -0.039314628
0.0790865 0.15979931 -0.03391512 -0.06248116 -0.04582134 0.27846527 -0.060915787 0.027548559
-0.03536407 0.13830549 0.053498946 -0.098222494 0.06579151 -0.027825315 0.083847225 0.09552763
0.017402422 -0.19031641 0.0885915 0.02981109 -0.05960923 0.20752639 -0.0481031 -0.116089955
-0.13596259 0.017610636 -0.2398564 0.02986053 0.05392603 0.1658103 -0.08193812 -0.024162363
0.07367225 0.24559233 0.07396726 -0.0871463 -0.015407207 0.0009612696 -0.14670053 -0.122223
-0.10954332 0.097830065 -0.07429598 -0.025344793 0.0032820324 -0.30245775 0.09665023 -0.28278595
0.027589422 -0.06554622 -0.16240811 -0.03334129 0.28033867 0.0168562 0.08682356 -0.15026452
00000000: 2871 3a3d 66ec 403e 3800 a4bd 89d7 b0bd
00000010: 1c7e c8bd 5aee 353d ec86 513c 0d58 7c3d
00000020: 661e 70bd 2a4e 0b3d 83cf a6bd d7a6 28bd
00000030: 80e8 f6bc e705 27be 3bfe 2ebd 645d bf3c
00000040: ad82 9f3d ebac 333e 3498 f6bd 8631 e8bd
00000050: 0361 393e 056c 143e beea 95bd decc 013e
00000060: 557d d6bd 7f2e d23c 9ecb 083e 1305 dabd
00000070: dfd6 1cbe ff9b 5fbd 7352 75bd c721 aa3d
00000080: f4c1 3ebe 91f8 85bd 9d40 4cbe e566 6cbd
00000090: d8cf 24bc 0a56 7d3d 5c00 933d 4f47 e93d
000000a0: c969 93bd 0867 9abd 50cb 8cbc 3b40 3cbe
000000b0: c44e 9dbe 58bd 08be 82e9 c23d 4446 493d
000000c0: 0d9d 24bd 6ac1 efbc f3af 343e fa29 5a3e
000000d0: 3be2 6ebc af18 75bd 3cd2 1e3e e270 b7bd
000000e0: ce5c 7a3d c1ae 033c ae6a dfbd a87b 5cbd
000000f0: 8ae4 b53c 38a3 c7bb 67ef 8dbe 1aab b53c
00000100: 046e 0a3e ea18 c5bd 8b85 613d 717b 0d3e
00000110: d615 163e 48d2 8b3e 124c 78be b4cd 1abe
00000120: fdeb bf3d 4a33 703e a64f 483e 0303 213e
00000130: 2d37 623b e694 d1bd b28a c13d 4329 60be
00000140: ea95 83be e27e 283e db26 073e 9be7 fbbd
00000150: f2ee ca3b 8bc2 96bc 7fbb 4ebb 4557 0cbe
00000160: e4f5 b23d 6024 7dbe 8b5f 0f3e a7d5 183e
00000170: 8316 ce3d 83ee d73d 22b3 dabd 8435 71be
00000180: c5e3 d73d 8f06 353b c8b3 f6bd b6eb 88be
00000190: 72d3 2d3d 4dc1 043e a3f1 753c 919e 96bb
000001a0: ddf1 5ebe 770b 89bd 857d a0bd 07dd 58be
000001b0: 1a64 693e d1d1 10bd 4aa0 96bd 5ab6 153e
000001c0: 5419 79bd 637d 133e 40d3 8abd 7357 7dbe
000001d0: 809d 4b3d 0359 da3d f97d 4abd a1e3 083e
000001e0: d26e 453c c819 563d 2014 10be 535d abbb
000001f0: f088 48be 0b80 25be 2b1c a43c d324 763d
00000200: 3720 ffbd bb59 e4bd 2a4c 75be 7977 02be
00000210: ae26 71be 51a5 133c 3199 093e a776 c0bd
00000220: da22 26be 56dc f6bb 0eec 6bbd 1ea5 033e
00000230: cca4 853e f000 a03d 2dc5 4c3e 15bc 0c3d
00000240: b2a3 cebd 0eb0 a5bd 208c d8bd 966f 0dbd
00000250: 1423 e1bd 1b76 22be 1355 6cbe 1d9e 0bbe
00000260: 4d06 82bb e098 213e 9b25 463e af20 b4be
00000270: c2b9 6dbd e85e 2dbe 399c 4ebd 660b c9bd
00000280: b7e9 f6ba c7b5 833c a041 6bbe 4e51 ebbd
00000290: de7f aebd 60d6 093d 6f4a bcbd 7958 e13d
000002a0: 6be8 1bbd 96a3 18bd 76e4 473e 6dc7 f2bc
000002b0: cdaf b63d 128f 10bd ea82 80be da64 3c3e
000002c0: 7674 a13c f1de 063d d769 893e 5e00 ecbd
000002d0: 823a 6d3b d87a 43bb 5859 1f3e e824 943c
000002e0: 76c5 873c 4971 6abd c80b 463b abba 61bd
000002f0: 24ee aebd 803a 093e 63b9 743e ed0a 343e
00000300: c9e2 0ebd d583 89bd 50ae ca3b 8e1a af3d
00000310: ab98 6bbc 4b3d e23d 3d77 23be 6008 21bd
00000320: 1af8 a13d 6ea2 233e 95ea 0abd 3fec 7fbd
00000330: 28af 3bbd 0093 8e3e d582 79bd 84ad e13c
00000340: ead9 10bd f49f 0d3e b621 5b3d e028 c9bd
00000350: b3bd 863d eaf1 e3bc 18b8 ab3d fda3 c33d
00000360: 868f 8e3c 4ee2 42be 766f b53d 6336 f43c
00000370: cf28 74bd cc81 543e c207 45bd 92c0 edbd
00000380: c739 0bbe 2e44 903c eb9c 75be 129e f43c
00000390: 8ae1 5c3d 2dca 293e 2ccf a7bd 26f0 c5bc
000003a0: 7ae1 963d 8e7c 7b3e 267c 973d c279 b2bd
000003b0: 836e 7cbc b6fd 7b3a aa38 16be 0d50 fabd
000003c0: 4058 e0bd 215b c83d 7e28 98bd e29f cfbc
000003d0: 5e17 573b bedb 9abe 8ef0 c53d 52c9 90be
000003e0: 3603 e23c 193d 86bd 504e 26be e090 08bd
000003f0: 8d88 8f3e 0316 8a3c 8dd0 b13d f1de 19be

gcin.adj f4 [57, 57]
0.12161072 -0.15190254 0.06226231 -0.16009185 -0.107818864 0.112236165 0.2694362 -0.11222753
0.108053185 -0.0011431293 -0.113686286 0.009177006 0.091219716 -0.06228736 0.049988102 0.08848904
-0.150413 0.086653374 0.024924414 0.05948349 0.24016285 0.047865834 0.020353597 -0.03278126
-0.27964506 -0.09588592 0.044679344 -0.16461766 0.05236995 -0.040820304 0.13893329 -0.02197482
0.05303287 -0.054978903 -0.2160321 0.0013750568 -0.008092352 -0.069229074 0.023596708 0.20397712
-0.03618776 0.21032497 0.056925073 -0.011829675 0.11871512 -0.1166727 0.06760355 0.17692852
-0.05685781 0.0062452354 -0.023960117 0.033070717 -0.17503047 -0.15014984 0.043902785 -0.1703902
0.030842237 -0.034239043 0.07490277 -0.14277261 0.14896208 0.2247958 0.019432852 -0.024366906
0.20498908 -0.1504411 -0.17060699 -0.039851114 0.065051526 0.039800756 0.09369754 -0.15702355
-0.23689082 -0.013740487 -0.042190496 0.030557856 0.2927593 0.21926779 -0.11402565 0.12902813
-0.11553086 -0.05444025 -0.12797108 0.08287641 0.25467637 0.13577749 0.016583897 -0.07835003
0.10224812 0.16518445 -0.011903258 0.10366031 0.043784294 0.030859204 -0.02313294 0.13922109
-0.28423542 0.12567699 0.0035614413 0.01684326 0.1860214 0.070013374 0.24146697 0.27243245
0.041037682 -0.08656775 -0.07391483 -0.11275343 0.016225372 -0.07830827 0.22601555 0.04004454
0.029253123 0.045408644 0.14548983 0.081768826 -0.15224847 -0.13800772 0.09773122 -0.0011714733
0.059992727 -0.20224082 -0.20885894 0.11660532 0.14261393 -0.09724542 0.05996402 -0.10405523
0.07313524 0.059791353 0.031830955 -0.19847511 -0.21700783 0.17765313 0.13317604 0.27101427
0.23421553 -0.17870961 0.06275414 -0.083781295 -0.012982027 -0.21312073 -0.071456335 0.02217129
-0.0076162005 -0.03533341 -0.16913435 -0.23016854 0.103310265 -0.108561285 -0.10462783 -0.09876283
-0.13738123 -0.19468518 0.101476625 0.11322034 -0.059150726 -0.05672187 0.13163744 0.06054113
-0.04677487 -0.048797745 0.2367734 -0.20328036 -0.22471137 -0.02048259 0.32278958 -0.1890884
0.16989377 0.13338806 0.12000204 0.043858007 0.30097342 0.13650092 -0.0935404 0.067973524
0.15798146 -0.020162234 -0.18149342 0.08451319 -0.20575118 -0.15148333 -0.009644543 -0.12474891
0.011871123 0.07284746 -0.17213094 0.035690058 0.026691413 0.08347682 -0.029022593 0.25168478
0.12739432 0.064352885 0.04187036 0.19375193 -0.007643087 -0.20683794 -0.04417195 -0.046552934
0.051502038 -0.10716405 -0.0061196624 -0.07331569 -0.009630387 0.06895507 -0.02842197 -0.14989017
-0.09680235 -0.0793743 0.08181709 0.057684213 -0.10592054 -0.15870711 0.0135180745 0.12385129
0.19269814 0.18506026 -0.11535714 0.090168424 0.005658598 -0.084755674 -0.08062499 0.14326142
0.1338526 -0.06872201 -0.098551124 0.04760478 -0.009961898 0.17964646 0.075043514 0.12345592
-0.07870233 -0.018423919 -0.053728364 -0.0122831995 -0.08396885 -0.080783136 -0.23426178 0.12898795
-0.078164436 0.12384988 0.14730981 -0.01786908 0.21702382 0.045416426 0.22000241 0.17175576
-0.06377974 0.22533928 0.0760228 -0.03850127 0.25717366 -0.03661868 -0.3649564 -0.16769002
00000000: 0b0f f93d 578c 1bbe c406 7f3d 1eef 23be
00000010: 23d0 dcbd 13dc e53d 8bf3 893e 8cd7 e5bd
00000020: fd4a dd3d 0ed5 95ba 5bd4 e8bd 275b 163c
00000030: 67d1 ba3d 0821 7fbd 53c0 4c3d be39 b53d
00000040: de05 1abe 5377 b13d 492e cc3c f6a4 733d
00000050: 40ed 753e f70e 443d 96bc a63c a445 06bd
00000060: a32d 8fbe d65f c4bd b001 373d 8891 28be
00000070: df81 563d 3133 27bd 8744 0e3e 8a04 b4bc
00000080: ff38 593d 8f31 61bd 8537 5dbe 403b b43a
00000090: c995 04bc f9c7 8dbd e24d c13c 61df 503e
000000a0: 9e39 14bd 6e5f 573e 442a 693d 41d1 41bc
000000b0: ea20 f33d 19f2 eebd bb73 8a3d c02c 353e
000000c0: bce3 68bd d5a4 cc3b 0248 c4bc 2975 073d
000000d0: 303b 33be e1c0 19be 68d3 333d c57a 2ebe
000000e0: dca8 fc3c 3d3e 0cbd a066 993d fc32 12be
000000f0: 8489 183e df30 663e a531 9f3c 1b9d c7bc
00000100: a8e8 513e 3b0d 1abe 99b3 2ebe ec3a 23bd
00000110: bc39 853d 1e06 233d 7fe4 bf3d c8ca 20be
00000120: 8293 72be c81f 61bc f1cf 2cbd 7854 fa3c
00000130: 8ce4 953e bc87 603e 4886 e9bd f31f 043e
00000140: 729b ecbd bdfc 5ebd da0a 03be 1bbb a93d
00000150: f164 823e 4109 0b3e f4da 873c fb75 a0bd
00000160: 7667 d13d 1d26 293e e205 43bc db4b d43d
00000170: 2957 333d 71cc fc3c 4b81 bdbc f98f 0e3e
00000180: 4e87 91be 78b1 003e 1267 693b e0fa 893c
00000190: 657c 3e3e 2c63 8f3d 1e43 773e 447c 8b3e
000001a0: 2117 283d 6f4a b1bd a960 97bd 45eb e6bd
000001b0: 12eb 843c 1660 a0bd 9f70 673e be05 243d
000001c0: 3fa4 ef3c 6afe 393d 49fb 143e 6a76 a73d
000001d0: 06e7 1bbe e551 0dbe 4e27 c83d 1f8c 99ba
000001e0: efba 753d 3818 4fbe 1edf 55be c5ce ee3d
000001f0: 6309 123e 9b28 c7bd d59c 753d e91a d5bd
00000200: eec7 953d c7e7 743d 2d61 023d 0f3d 4bbe
00000210: 4d37 5ebe b4ea 353e 4d5f 083e 62c2 8a3e
00000220: 32d6 6f3e a7ff 36be 3e85 803d 8795 abbd
00000230: 91b2 54bc 523c 5abe b357 92bd 91a0 b53c
00000240: 5291 f9bb c4b9 10bd 8e31 2dbe 4db1 6bbe
00000250: 5594 d33d 6155 debd 1e47 d6bd 2b44 cabd
00000260: aaad 0cbe 8d5b 47be fad2 cf3d 11e0 e73d
00000270: 0848 72bd 3155 68bd f7cb 063e faf9 773d
00000280: 0297 3fbd 25e0 47bd ba74 723e ba28 50be
00000290: bd1a 66be 1bcb a7bc ad44 a53e 64a0 41be
000002a0: a2f8 2d3e e196 083e a1c3 f53d 74a4 333d
000002b0: 3019 9a3e e6c6 0b3e 1c92 bfbd b435 8b3d
000002c0: e4c5 213e 452b a5bc 69d9 39be 4015 ad3d
000002d0: 70b0 52be 721e 1bbe 2504 1ebc 5b7c ffbd
000002e0: 197f 423c 0d31 953d 1843 30be bd2f 123d
000002f0: f3a7 da3c e5f5 aa3d cac0 edbc d4dc 803e
00000300: a873 023e 72cb 833d 4180 2b3d e866 463e
00000310: dc72 fabb 53cd 53be a6ed 34bd 4aae 3ebd
00000320: cdf3 523d d378 dbbd 7387 c8bb 8926 96bd
00000330: c5c8 1dbc 5138 8d3d 31d5 e8bc cf7c 19be
00000340: 4f40 c6bd fe8e a2bd b88f a73d 4846 6c3d
00000350: deec d8bd 1e84 22be ea7a 5d3c bfa5 fd3d
00000360: a952 453e 7080 3d3e 5d40 ecbd 39aa b83d
00000370: c36b b93b 6294 adbd b71e a5bd 1fb3 123e
00000380: a810 093e 20be 8cbd 2cd5 c9bd 3bfd 423d
00000390: 3b37 23bc 3ef5 373e 6ab0 993d 75d6 fc3d
000003a0: b02e a1bd c2ed 96bc 4612 5cbd 793f 49bc
000003b0: dcf7 abbd a171 a5bd 52e2 6fbe 6b15 043e
000003c0: ad14 a0bd 02a5 fd3d 62d8 163e 2d62 92bc
000003d0: 7e3b 5e3e 9306 3a3d 5048 613e bee0 2f3e
000003e0: f49e 82bd 57bf 663e d7b1 9b3d 82b3 1dbd
000003f0: 44ac 833e 78fd 15bd 91db babe efb6 2bbe

gcin.bias f4 [32]
-0.11514169 0.05278935 -0.11570693 0.03773202 -0.0236885 0.118927404 -0.0808136 -0.08375583
-0.028896077 -0.11388769 0.060613267 -0.0738034 0.07473287 0.104961686 0.10670161 -0.019458784
0.09552522 -0.09912992 -0.17782147 -0.023326859 -0.12823626 -0.13807455 0.04406169 0.14869079
-0.07703289 -0.0046528247 -0.12837584 0.03151615 0.05227382 -0.04168539 0.13623631 -0.13735433
00000000: 68cf ebbd a539 583d c1f7 ecbd e48c 1a3d
00000010: 630e c2bc 3690 f33d 9a81 a5bd 2d88 abbd
00000020: 77b7 ecbc f33d e9bd 9e45 783d 3d26 97bd
00000030: 8c0d 993d 27f6 d63d 6086 da3d 0768 9fbc
00000040: baa2 c33d a104 cbbd d516 36be f817 bfbc
00000050: 5e50 03be 6a63 0dbe 087a 343d 6642 183e
00000060: 6bc3 9dbd b976 98bb f574 03be 1417 013d
00000070: 131d 563d 4dbe 2abd 8881 0b3e 9da6 0cbe

gcout.weight f4 [32, 25]
-0.05630769 -0.1988407 0.10741263 0.34504026 0.22288278 0.20679381 0.079825185 -0.19706337
-0.099608004 0.049463112 -0.2494869 0.19512977 0.14467032 -0.0076975226 -0.11476183 0.039629366
-0.005296145 -0.025767256 0.009846739 0.12265838 -0.081392124 0.05738705 -0.13048984 0.14427772
0.19694215 0.02345286 0.04274267 -0.15856017 -0.13628753 -0.08984877 0.040043477 -0.1613003
0.001300155 0.11688447 0.15037122 -0.11154784 0.12227843 0.1676157 0.046231627 0.12102899
0.029772706 -0.08903961 0.17710677 -0.025558589 0.13195723 -0.18819728 0.071059175 -0.2722822
0.10158835 -0.18484618 -0.074861564 -0.19695108 -0.068103634 0.07655806 0.03163238 -0.11708703
0.10311742 0.02271343 -0.076972425 0.10967716 0.067279145 0.14530006 -0.055207316 -0.17212485
0.11035481 -0.17271063 -0.058132622 0.29975477 -0.18312037 0.08018265 0.22072782 0.005319902
0.081630334 0.019818248 0.27066007 -0.08126235 -0.09071119 0.14798182 -0.031964183 -0.115388244
0.05636844 0.06282997 -0.148212 0.04381981 0.16400619 -0.058860183 0.088214956 -0.059055287
-0.16543542 -0.10882948 -0.15468442 0.09499546 0.14468229 -0.095112905 0.1765805 0.033950705
0.2110953 0.061258145 -0.057704456 -0.0017952998 0.03760544 -0.26475364 0.034974247 -0.25576052
-0.022201465 0.0062634097 0.07854399 0.070304774 -0.15281126 0.28233358 0.11234605 0.049686052
0.08215312 -0.20231175 -0.13024803 -0.21794803 -0.09619329 0.096722886 -0.27327147 0.2661244
0.09998502 0.050187558 0.14412406 -0.050146773 0.14448215 0.2655577 -0.19956227 0.022587566
0.152749 -0.039248124 0.08887633 -0.009328988 -0.11822944 0.10572774 0.016975354 -0.10139893
0.15085101 0.13507503 0.03653299 -0.16667311 0.14014257 -0.17003687 -0.17060642 0.054008327
0.21373795 0.27513728 0.2460099 -0.15236685 -0.002745495 -0.048599146 -0.053277683 0.19284253
-0.078480236 -0.20972866 -0.23475802 -0.16496278 0.1149908 0.00045253878 -0.24321502 -0.14411552
0.16234095 -0.025158701 0.22902778 0.04865756 0.16610228 -0.111918494 0.012824847 0.00374714
0.30647263 0.06228769 -0.21439564 -0.2130215 -0.1258561 -0.026944753 -0.0066624205 0.09246999
0.059766926 0.06399828 -0.052446906 -0.28790742 -0.11982259 0.12383387 -0.016348217 -0.13818336
0.026647668 -0.23613939 0.12598906 0.18892172 0.021649193 0.0029608223 -0.024301693 0.07653981
0.22316492 -0.030028155 0.0050786184 -0.27497903 -0.2587898 0.011045359 0.060668573 -0.21436541
0.00013430562 -0.23466711 0.108734906 0.011066059 -0.055482812 0.10532449 0.19492273 -0.19180533
0.025377579 0.25217003 0.07711795 0.16737293 0.0069265286 -0.19595543 -0.09318786 -0.17025839
0.1316851 0.10933653 -0.12975281 0.11701103 -0.030968446 0.04212044 0.0015229416 -0.0648547
0.09967494 0.08164864 -0.10723713 0.2144049 -0.031330407 0.06768414 0.30911586 -0.15920542
-0.062764145 0.21216223 0.061084494 -0.03089031 0.18259954 -0.08137829 0.18016331 -0.059661962
0.09823607 0.012708755 -0.127717 -0.038610127 0.12834555 0.18045732 -0.09595416 -0.054697737
-0.10230881 0.17139998 0.09183522 -0.13694635 0.09846514 0.12415323 0.013723117 -0.055328406
00000000: e4a2 66bd e59c 4bbe 27fb db3d 1ea9 b03e
00000010: 623b 643e c2c1 533e 637b a33d fbca 49be
00000020: 48ff cbbd d599 4a3d 7e79 7fbe 19d0 473e
00000030: 7524 143e 803b fcbb 4008 ebbd 6752 223d
00000040: 498b adbb da15 d3bc 3754 213c 5134 fb3d
00000050: eab0 a6bd af0e 6b3d 219f 05be 8abd 133e
00000060: 34ab 493e 3620 c03c f012 2f3d 995d 22be
00000070: f58e 0bbe a202 b8bd a104 243d e82b 25be
00000080: f669 aa3a 2061 ef3d eafa 193e 3273 e4bd
00000090: 1d6d fa3d 73a3 2b3e 605d 3d3d 0cde f73d
000000a0: e4e5 f33c 665a b6bd 7a5b 353e 3f60 d1bc
000000b0: cc1f 073e cab6 40be 7987 913d 9368 8bbe
000000c0: 8e0d d03d 5148 3dbe 0551 99bd 8bad 49be
000000d0: eb79 8bbd 79ca 9c3d f490 013d 53cb efbd
000000e0: 3a2f d33d 8411 ba3c b8a3 9dbd 6b9e e03d
000000f0: a6c9 893d 8ac9 143e 1121 62bd 7f41 30be
00000100: b401 e23d 0edb 30be 791c 6ebd 7579 993e
00000110: e883 3bbe cd36 a43d 7906 623e 9352 ae3b
00000120: ce2d a73d e159 a23c f593 8a3e e06c a6bd
00000130: cac6 b9bd 8c88 173e e0ec 02bd ac50 ecbd
00000140: 98e2 663d 00ad 803d e3c4 17be 677c 333d
00000150: 3df1 273e 6017 71bd 0baa b43d f5e3 71bd
00000160: e767 29be fee1 debd 9865 1ebe fb8c c23d
00000170: 9827 143e 8eca c2bd 85d1 343e e50f 0b3d
00000180: 5e29 583e d2e9 7a3d 825b 6cbd 4450 ebba
00000190: 2908 1a3d ca8d 87be 2841 0f3d 0bf3 82be
000001a0: d9df b5bc 4a3d cd3b acdb a03d f3fb 8f3d
000001b0: 8e7a 1cbe 078e 903e b015 e63d 9a83 4b3d
000001c0: e53f a83d d02a 4fbe bd5f 05be c52d 5fbe
000001d0: fd00 c5bd a616 c63d 3dea 8bbe 7541 883e
000001e0: f2c4 cc3d 7891 4d3d 4295 133e b466 4dbd
000001f0: 21f3 133e 2ef7 873e 0d5a 4cbe 8f09 b93c
00000200: 3c6a 1c3e a4c2 20bd cb04 b63d 9dd8 18bc
00000210: 4722 f2bd c987 d83d e60f 8b3c 3eaa cfbd
00000220: b078 1a3e 1c51 0a3e 9ea3 153d 5bac 2abe
00000230: 8981 0f3e 251e 2ebe 73b3 2ebe d637 5d3d
00000240: 1fde 5a3e cbde 8c3e 05ea 7b3e 0e06 1cbe
00000250: c3ed 33bb e60f 47bd b339 5abd 8378 453e
00000260: 3fba a0bd 1cc3 56be 6864 70be 01ec 28be
00000270: 4c80 eb3d ba42 ed39 5c0d 79be 0593 13be
00000280: b53c 263e 9f19 cebc 4286 6a3e 264d 473d
00000290: b716 2a3e 8635 e5bd 4f1f 523c 9492 753b
000002a0: fbe9 9c3e 6021 7f3d 888a 5bbe 4f22 5abe
000002b0: 6ce0 00be 3ebb dcbc 6f50 dabb e860 bd3d
000002c0: 2ace 743d 8811 833d 91d2 56bd 9a68 93be
000002d0: 8c65 f5bd 9d9c fd3d b2ec 85bc f07f 0dbe
000002e0: 364c da3c 86ce 71be 4703 013e b274 413e
000002f0: a659 b13c 5b0a 423b 5814 c7bc e7c0 9c3d
00000300: 5885 643e 9bfd f5bc 8a6a a63b 0dca 8cbe
00000310: 1980 84be 98f7 343c 9c7f 783d 9b82 5bbe
00000320: 64d4 0c39 934c 70be 68b0 de3d 6a4e 353c
00000330: f241 63bd 5eb4 d73d d399 473e 9e68 44be
00000340: a4e4 cf3c 6e1c 813e 04f0 9d3d cf63 2b3e
00000350: eff7 e23b 8aa8 48be 47d9 bebd 3758 2ebe
00000360: 75d8 063e d5eb df3d ecdd 04be 7ba3 ef3d
00000370: 8ab1 fdbc 7c86 2c3d 719d c73a 8ad2 84bd
00000380: 6022 cc3d 6737 a73d 249f dbbd f58c 5b3e
00000390: 5054 00bd fb9d 8a3d 6f44 9e3e bf06 23be
000003a0: 7d8a 80bd 0e41 593e bc33 7a3d ad0d fdbc
000003b0: 60fb 3a3e a9a9 a6bd bb7c 383e 1a60 74bd
000003c0: fe2f c93d 6238 503c 3fc8 02be a725 1ebd
000003d0: 046d 033e cec9 383e 9d83 c4bd bc0a 60bd
000003e0: 4887 d1bd 7a83 2f3e 1b14 bc3d aa3b 0cbe
000003f0: 17a8 c93d 0c44 fe3d edd6 603c 0aa0 62bd

gcout.adj f4 [57, 57]
-0.11069629 -0.26854518 -0.16713668 0.09191559 0.05968998 -0.046900142 0.01352358 0.010505698
0.26990303 -0.12092969 -0.0954106 -0.08590489 0.13635348 -0.13710298 0.07652329 0.11664114
-0.047658253 -0.14370678 -0.13798012 -0.06757569 -0.11930454 0.038001113 0.033535894 -0.31378728
-0.08836519 -0.24885616 0.10609971 0.027350012 -0.079040945 -0.12834191 -0.28835997 -0.06654701
-0.199676 -0.21568295 -0.11939979 -0.13323715 -0.11172943 0.017499702 0.047667406 0.07328044
-0.33111897 0.04853623 0.017790519 0.074156545 -0.050520886 0.13178158 -0.19680652 0.2248925
0.08195264 0.05880146 -0.30412143 -0.08835068 -0.09984724 0.10107068 -0.025886683 -0.010417816
-0.024426319 -0.13528866 -0.0862603 -0.039165895 -0.0957423 0.16411752 0.12175456 -0.112975754
0.14918002 0.19024773 -0.10803851 -0.061729882 -0.13457084 -0.0006670042 0.029928999 -0.056626186
0.2704641 -0.04659858 -0.09750316 -0.2195999 -0.1645091 0.17849393 -0.07676818 -0.2697387
0.06221908 -0.16259322 -0.20383726 0.18947619 -0.07321487 -0.07098563 -0.13645235 -0.17026913
0.029541273 0.02153082 -0.16294165 0.16410927 -0.1878686 0.11595997 -0.15097143 -0.11666597
0.044419453 -0.3230282 -0.0032494417 0.07621058 0.18656678 -0.27727717 -0.02128699 0.1505756
-0.19460799 -0.08711 -0.058858007 0.07960094 -0.1926056 0.068633296 -0.062685154 0.048481356
-0.06787759 -0.07943599 -0.11570727 -0.17412536 0.07047419 0.04107199 -0.16439308 0.27031848
-0.16425277 -0.040650345 0.033014543 -0.24905884 -0.014880393 -0.20187116 -0.083912775 -0.00115083
0.26334932 0.11421326 0.13129476 -0.18598075 -0.17648278 0.07525232 -0.00070223317 -0.1377109
0.052307475 0.1132588 -0.10519534 0.00031274563 -0.12105 -0.004385013 0.018688317 -0.15443674
-0.1632051 0.07118176 -0.03073394 0.1434472 0.09164198 -0.16778085 -0.1422108 -0.24148872
0.1582118 -0.08053511 -0.25701398 -0.04548258 -0.06466974 -0.01111751 0.21126936 -0.06692427
-0.029616317 0.31644556 0.061909024 0.19208616 -0.120440066 0.0837223 0.030828064 -0.110080004
-0.051224153 -0.2028205 0.22257832 0.021846293 -0.31437173 0.2939194 0.20349836 0.08257874
0.13091701 0.207056 0.13388222 0.2895427 0.110921144 0.044323925 -0.14560516 -0.0027381831
-0.043995142 0.11034091 0.12574215 0.10902624 -0.09958551 -0.1044299 0.14144412 0.003402955
0.049082562 -0.22723909 -0.0629928 0.10983115 -0.09491312 0.15514678 -0.037131578 0.22228235
0.049857944 0.066032805 -0.214226 0.03026399 -0.06395988 -0.14673942 -0.14932707 0.04140729
-0.16690652 0.08257655 0.009474669 0.1025547 0.13805099 0.24238624 0.10111852 0.19897534
0.0007149769 0.12306928 -0.0030533848 -0.062732115 -0.16693877 0.26213 -0.040393513 -0.08692488
0.20404509 0.1156468 -0.07941079 -0.108928636 0.084167145 0.23072745 -0.124226145 -0.052158073
0.011485964 0.0023701624 -0.14661841 -0.0076173595 0.048425462 0.02939899 0.06039433 -0.06021493
-0.27600667 0.072296895 0.1959466 -0.16165552 -0.36689836 0.1828076 -0.14730401 -0.13213797
0.07296707 -0.019510927 0.0676875 0.21968172 -0.03909718 0.23041934 -0.12344045 0.2053805
00000000: bdb4 e2bd c17e 89be e125 2bbe 3e3e bc3d
00000010: 7b7d 743d 5d1a 40bd 0192 5d3c 1720 2c3c
00000020: bb30 8a3e fca9 f7bd a266 c3bd e7ee afbd
00000030: 3fa0 0b3e b964 0cbe 3eb8 9c3d 8de1 ee3d
00000040: 4d35 43bd df27 13be a94a 0dbe 2065 8abd
00000050: f055 f4bd 0ea7 1b3d ef5c 093d baa8 a0be
00000060: cff8 b4bd 26d4 7ebe ce4a d93d 220d e03c
00000070: 38e0 a1bd 106c 03be eba3 93be cc49 88bd
00000080: de77 4cbe fedb 5cbe e187 f4bd 526f 08be
00000090: 66d2 e4bd 895b 8f3c e63e 433d 0e14 963d
000000a0: 6d88 a9be edcd 463d 6cbd 913c 63df 973d
000000b0: fdee 4ebd c0f1 063e a687 49be 384a 663e
000000c0: c9d6 a73d cdd9 703d ceb5 9bbe 34f1 b4bd
000000d0: b67c ccbd 25fe ce3d 4f10 d4bc 7daf 2abc
000000e0: b419 c8bc 1c89 0abe 3da9 b0bd 6b6c 20bd
000000f0: 8a14 c4bd 6c0e 283e 745a f93d d55f e7bd
00000100: a6c2 183e 4dd0 423e 4b43 ddbd 79d8 7cbd
00000110: f0cc 09be e5d9 2eba a92d f53c dcf0 67bd
00000120: 457a 8a3e 27de 3ebd bdaf c7bd ccde 60be
00000130: 1375 28be 1dc7 363e a338 9dbd 311b 8abe
00000140: 6fd9 7e3d d67e 26be b7ba 50be 0c06 423e
00000150: aef1 95bd ea60 91bd 2aba 0bbe 085b 2ebe
00000160: 8a00 f23c 6761 b03c 2dda 26be 430c 283e
00000170: a060 40be 6c7c ed3d 4198 1abe 91ee eebd
00000180: 2cf1 353d f463 a5be 96f4 54bb 4b14 9c3d
00000190: 5d0b 3f3e 46f7 8dbe 0e62 aebc 7d30 1a3e
000001a0: 5147 47be ba66 b2bd 1815 71bd d105 a33d
000001b0: 673a 45be 9d8f 8c3d 1361 80bd 6394 463d
000001c0: 6803 8bbd 56af a2bd eff7 ecbd eb4d 32be
000001d0: c654 903d 1a3b 283d a956 28be 2f67 8a3e
000001e0: e131 28be fa80 26bd 423a 073d 4809 7fbe
000001f0: e4cc 73bc 50b7 4ebe 76da abbd 72d7 96ba
00000200: b9d5 863e a4e8 e93d 2272 063e bd71 3ebe
00000210: e7b7 34be e31d 9a3d 1216 38ba 1604 0dbe
00000220: 5d40 563d 3bf4 e73d a870 d7bd 02f8 a339
00000230: 10e9 f7bd 28b0 8fbb 3e18 993c aa24 1ebe
00000240: 3d1f 27be bec7 913d bec5 fbbc d3e3 123e
00000250: caae bb3d bece 2bbe b59f 11be d248 77be
00000260: 4602 223e 97ef a4bd 5697 83be f14b 3abd
00000270: 9271 84bd 3726 36bc ff56 583e 970f 89bd
00000280: eb9d f2bc 2705 a23e 5194 7d3d 3cb2 443e
00000290: 48a9 f6bd 9976 ab3d 238b fc3c a071 e1bd
000002a0: 6bd0 51bd 2db0 4fbe 92eb 633e fff6 b23c
000002b0: 55f5 a0be 9b7c 963e e061 503e 0b1f a93d
000002c0: 1c0f 063e 7d06 543e 6c18 093e f13e 943e
000002d0: a02a e33d 018d 353d 8519 15be 1773 33bb
000002e0: 4034 34bd 6afa e13d 8dc2 003e 2649 df3d
000002f0: 7df3 cbbd 58df d5bd bad6 103e 1c04 5f3b
00000300: cc0a 493d 5db1 68be 5e02 81bd 27ef e03d
00000310: cf61 c2bd ccde 1e3e 4817 18bd fc9d 633e
00000320: d837 4c3d 353c 873d 0f5e 5bbe 30ec f73c
00000330: 66fd 82bd dc42 16be 32e9 18be b19a 293d
00000340: 8be9 2abe e51d a93d a43b 1b3c 3308 d23d
00000350: 3d5d 0d3e 1934 783e 3a17 cf3d 31c0 4b3e
00000360: 4a6d 3b3a bf0b fc3d 4c1b 48bb b279 80bd
00000370: fff1 2abe e735 863e ab73 25bd ac05 b2bd
00000380: 32f1 503e 3bd8 ec3d 20a2 a2bd fa15 dfbd
00000390: d35f ac3d d143 6c3e 476a febd b4a3 55bd
000003a0: a02f 3c3c ba54 1b3b 2323 16be 0b9b f9bb
000003b0: c759 463d 27d6 f03c 0c60 773d eea3 76bd
000003c0: bf50 8dbe 6510 943d 3aa6 483e 0689 25be
000003d0: 1ada bbbe ea31 3b3e ddd6 16be 2d4f 07be
000003e0: c26f 953d 61d5 9fbc be9f 8a3d 3ff4 603e
000003f0: 5d24 20bd 0cf3 6b3e 59ce fcbd 444f 523e

gcout.bias f4 [25]
-0.025702784 -0.24152993 0.11531335 0.1380243 -0.13003957 0.042273358 -0.091705106 0.12408602
-0.08807938 0.14636 -0.11832918 -0.123524755 0.040441226 0.061789997 -0.09806215 0.14280361
0.04981075 0.049968768 -0.11055933 0.047506317 0.08398215 0.10165307 0.17795163 0.14215054
0.20454149
00000000: a58e d2bc 9f53 77be 6829 ec3d 3e56 0d3e
00000010: 1829 05be d426 2d3d e3cf bbbd d020 fe3d
00000020: f662 b4bd 65df 153e 9256 f2bd 8cfa fcbd
00000030: b3a5 253d 8217 7d3d cfd4 c8bd 1c3b 123e
00000040: 5b06 4c3d 0dac 4c3d ee6c e2bd fc95 423d
00000050: d5fe ab3d 7c2f d03d f438 363e e98f 113e
00000060: 5373 513e

bnin.weight f4 [1824]
0.8942543 1.0478618 0.98261034 1.0393624 0.90972716 1.0471208 0.97715807 1.0702037
0.95353955 1.0559294 1.006383 1.1275691 1.1039366 0.9081523 1.012857 0.8841847
1.1034855 0.93742687 1.0271553 0.83073854 0.9197983 1.034671 0.98018676 0.9149782
0.9125232 1.0728247 0.9693128 0.9822917 1.0126696 1.0950007 1.018916 1.0501065
0.96974885 1.0779032 1.026511 0.980846 0.9724583 1.1644676 0.9180026 0.97748005
0.897501 1.0104979 0.8516806 1.0763824 1.1768245 1.0882821 1.091298 1.0277573
1.039158 1.0329491 0.97724974 0.97158575 1.0254604 0.9122368 0.9332939 0.9185271
1.0471905 0.9045654 0.8495648 1.1259595 1.0216923 0.90709335 0.95721126 0.98661447
0.9524165 0.8902016 1.0454196 1.0250072 1.0216209 0.8821791 1.0354563 0.9025377
1.0850301 1.0173147 1.0497016 1.0697281 0.96147865 0.9471443 1.0553011 0.99606836
0.91220725 1.0261197 1.1949432 0.93454844 0.996341 1.1619973 1.0354894 1.0197726
1.0414288 1.1199819 1.0054458 0.8644782 1.0405297 1.1218741 0.96166646 1.1429608
0.8925484 0.95477366 1.0425591 0.967518 1.0258425 0.95799 0.9414788 0.9164021
1.0341343 0.91607004 1.0698849 1.0208188 1.0237538 1.132571 0.9175748 1.0234864
1.0832285 0.8993732 1.213135 1.001609 1.0274135 0.91692686 1.0574083 1.0569121
0.98866266 0.84835565 0.9422197 1.2018782 0.9967576 0.99362123 0.8196649 0.9267899
0.95828784 0.9783752 0.9608632 0.93661606 0.93457115 0.9575706 0.8836651 1.007096
1.014487 1.0279129 1.0414815 1.0218608 0.9632975 1.035313 1.151524 0.9466166
0.8863032 0.9154177 1.0201561 0.96591055 0.8828771 0.96961117 0.9812262 0.98437685
0.92432517 0.9938786 0.93651867 1.0235919 1.0049793 0.92539084 0.9464644 0.8877596
0.97628886 0.94973373 0.8611266 1.0960336 1.1316055 0.90610963 0.95608985 0.9260676
0.962158 0.9755012 0.8604686 1.0199549 0.92266566 0.91077846 1.066278 0.8001521
0.94087094 0.9489413 1.0082574 0.97685283 0.93460345 0.8421645 0.8446746 1.0115619
1.0393759 0.9632039 0.9926838 0.96289456 1.0324496 1.0357562 0.88078994 0.9608329
1.01182 0.9675181 0.94254017 0.9867833 1.0426893 0.9910648 1.0468931 0.85700905
0.91030866 0.9554693 0.9011075 0.99502444 0.8521657 0.9520537 0.9016223 0.8919627
0.85372674 0.9843047 0.9459 0.92119086 1.0810422 1.0318944 0.9021797 1.0105102
0.9878124 1.0096586 0.99524325 1.0124955 0.9968931 0.94912356 0.97520727 1.0052806
0.9320337 0.92160606 1.0094986 1.0832812 0.98830193 1.0967518 1.0669838 1.1188753
1.0418419 1.1986176 0.9932019 1.0235015 0.87217045 1.0081197 0.9981992 1.0008962
0.96045816 1.1202604 1.1751561 1.0274413 0.98359245 0.9113954 1.064513 0.97468245
1.0413029 1.1113049 0.97907096 0.88446605 1.1250885 0.95786726 0.9992421 1.0925384
00000000: daed 643f 5620 863f 5a8c 7b3f d409 853f
00000010: e1e3 683f 0e08 863f 0827 7a3f 6ffc 883f
00000020: 2b1b 743f b228 873f 28d1 803f 2f54 903f
00000030: cb4d 8d3f ab7c 683f 4ca5 813f ee59 623f
00000040: 033f 8d3f 35fb 6f3f d379 833f 48ab 543f
00000050: e777 6b3f 1970 843f 85ed 7a3f 033c 6a3f
00000060: 1f9b 693f 5252 893f e224 783f 7877 7b3f
00000070: 289f 813f fc28 8c3f d76b 823f e469 863f
00000080: 7641 783f bbf8 893f b664 833f b918 7b3f
00000090: 07f3 783f 460d 953f 3802 6b3f 223c 7a3f
000000a0: a0c2 653f ff57 813f bd07 5a3f e6c6 893f
000000b0: 2fa2 963f d44c 8b3f a7af 8b3f 8d8d 833f
000000c0: 2103 853f ad37 843f 0a2d 7a3f d8b9 783f
000000d0: 4942 833f 5a88 693f 59ec 6e3f 9824 6b3f
000000e0: 570a 863f 9991 673f 147d 593f 711f 903f
000000f0: d0c6 823f 4537 683f cc0b 753f c492 7c3f
00000100: 91d1 733f 41e4 633f 4fd0 853f 7033 833f
00000110: 79c4 823f 7dd6 613f d589 843f b60c 673f
00000120: 44e2 8a3f 5e37 823f 9f5c 863f daec 883f
00000130: 7723 763f 0d78 723f 1b14 873f 56fe 7e3f
00000140: 6a86 693f e457 833f e6f3 983f 913e 6f3f
00000150: 3410 7f3f 54bc 943f eb8a 843f e987 823f
00000160: 8a4d 853f 915b 8f3f 73b2 803f 714e 5d3f
00000170: 1430 853f 9299 8f3f c62f 763f 8a4c 923f
00000180: 0d7e 643f 0c6c 743f 9472 853f 42af 773f
00000190: cf4e 833f d53e 753f c104 713f 5499 6a3f
000001a0: 835e 843f 9183 6a3f fdf1 883f 31aa 823f
000001b0: 5d0a 833f 16f8 903f 2fe6 6a3f 9a01 833f
000001c0: 3ba7 8a3f 523d 663f 0248 9b3f b934 803f
000001d0: 4982 833f b8bb 6a3f 2859 873f e548 873f
000001e0: ff18 7d3f d62d 593f 4f35 713f 25d7 993f
000001f0: 822b 7f3f f65d 7e3f 8fd5 513f 1a42 6d3f
00000200: 5a52 753f cc76 7a3f 21fb 753f 12c6 6f3f
00000210: 0e40 6f3f 5923 753f e037 623f 86e8 803f
00000220: b6da 813f a692 833f 444f 853f 56cc 823f
00000230: aa9a 763f 2385 843f 2365 933f 7755 723f
00000240: c4e4 623f d058 6a3f 7a94 823f ea45 773f
00000250: 3c04 623f 7038 783f a431 7b3f 1f00 7c3f
00000260: 93a0 6c3f d46e 7e3f b0bf 6f3f 0f05 833f
00000270: 29a3 803f 6ae6 6c3f 7e4b 723f 3744 633f
00000280: 11ee 793f c021 733f cb72 5c3f d44a 8c3f
00000290: 73d8 903f cdf6 673f 4ec2 743f c412 6d3f
000002a0: fd4f 763f 72ba 793f ac47 5c3f e28d 823f
000002b0: d133 6c3f c728 693f cc7b 883f c5d6 4c3f
000002c0: ebdc 703f d1ed 723f 940e 813f 0713 7a3f
000002d0: 2c42 6f3f 1898 573f 983c 583f dc7a 813f
000002e0: 450a 853f 8894 763f 8720 7e3f 4280 763f
000002f0: 4f27 843f a993 843f 737b 613f 25f9 753f
00000300: 5183 813f 44af 773f 504a 713f d59d 7c3f
00000310: d876 853f 6cb6 7d3f 9800 863f f264 5b3f
00000320: fd09 693f a399 743f fbae 663f ecb9 7e3f
00000330: 8827 5a3f cbb9 733f b8d0 663f ab57 643f
00000340: d68d 5a3f 65fb 7b3f 8126 723f 2ad3 6b3f
00000350: 975f 8a3f 1e15 843f 40f5 663f 6658 813f
00000360: 46e1 7c3f 7e3c 813f 43c8 7e3f 7499 813f
00000370: 6334 7f3f c3f9 723f 2fa7 793f 09ad 803f
00000380: c399 6e3f 60ee 6b3f 4037 813f f5a8 8a3f
00000390: 5b01 7d3f 5d62 8c3f ed92 883f 4e37 8f3f
000003a0: 135b 853f 4d6c 993f 7b42 7e3f 1902 833f
000003b0: 9046 5f3f 110a 813f fc89 7f3f 5e1d 803f
000003c0: 96e0 753f b164 8f3f 846b 963f 3283 833f
000003d0: b7cc 7b3f 3551 693f f641 883f ca84 793f
000003e0: 6a49 853f 3d3f 8e3f 65a4 7a3f 5e6c 623f
000003f0: e602 903f ca36 753f 55ce 7f3f 4cd8 8b3f

bnin.bias f4 [1824]
-0.025048953 -0.02577016 -0.10236002 -0.042839397 0.031640306 0.0262459 -0.027283182 -0.07100022
-0.019925296 0.10170986 -0.032984864 0.117631294 0.059370507 -0.1229315 0.08366528 -0.16981189
0.018165873 -0.054589774 -0.0701951 -0.05904322 -0.077813804 -0.008934479 -0.067538306 -0.10246036
-0.06268546 -0.062227365 -0.048775677 -0.0073790033 0.08363745 0.089218944 -0.05663236 -0.059791774
0.010151569 0.051043827 0.0668511 0.042035747 -0.055230476 0.15343471 0.062078964 -0.036060147
-0.029120542 0.079027124 -0.0108567625 0.011660839 0.07425001 0.014866865 0.05512013 -0.0007146976
0.00042255796 0.052180607 0.046507556 -0.040601347 0.07700265 -0.12303592 -0.021734701 -0.11248887
0.064284295 0.053338055 -0.11606378 0.08439824 0.11111684 0.031735286 0.040479135 -0.049699347
0.06905436 -0.1454876 0.05904105 -0.035988126 -0.08185499 -0.096251264 -0.06645249 -0.030863207
-0.0044827834 0.03432775 -0.0050089806 0.10285227 -0.0062139914 -0.12771106 0.13409844 0.03714913
-0.03676147 0.037660528 0.08669085 -0.025363624 -0.061326917 0.112160705 -0.09245627 -0.030403186
-0.007060827 -0.018878907 0.012595107 -0.21612112 -0.09418162 0.025989141 -0.08614107 0.18218184
-0.07059518 0.01149016 -0.056280114 -0.08275233 -0.09168602 0.0376032 -0.018033493 -0.03180169
-0.0607173 -0.046679717 0.05362415 0.042430293 -0.046001293 -0.016115766 -0.0615339 0.14059491
0.14406231 -0.029322142 0.09879867 -0.07497308 0.011244198 -0.11299635 -0.11183068 0.090952516
-0.12775743 -0.14473417 -0.07388973 -0.021680925 -0.12362457 -0.021273982 -0.20508164 -0.11346802
-0.00020274981 0.048636835 -0.15298179 -0.11898315 -0.10757994 0.009596784 -0.11536372 0.04486535
0.001697505 -0.035609964 -0.021403806 0.06989215 -0.0072467383 -0.009151282 0.04373503 -0.034413144
-0.119788304 -0.054724213 -0.041823186 0.06536142 -0.18111768 -0.035681557 -0.07609881 -0.042200208
-0.0439289 -0.018218799 -0.037976123 -0.016098483 -0.056322537 -0.1250654 -0.0073524695 -0.12691908
-0.120502986 -0.008431958 -0.19486016 -0.00035679285 0.08304025 -0.12349647 -0.04187648 -0.02816801
-0.07268146 0.059683263 -0.14503753 -0.038717408 -0.09088405 -0.074601464 0.029912973 -0.18184063
-0.017997429 -0.05961705 -0.006742891 0.0237442 0.030399354 -0.16862676 -0.13431573 -0.063756645
0.026384125 -0.068594165 -0.106888056 -0.01607217 0.03119149 0.045702755 -0.04640587 -0.02928651
-0.090091825 0.0333089 -0.043193705 0.0044089267 -0.055881698 0.01645307 0.030822814 -0.06520469
-0.024417365 -0.10265855 -0.076860614 0.025948677 -0.15793252 -0.060001086 -0.10558494 -0.03830287
-0.20495398 -0.113471285 -0.010698266 -0.094598375 0.04879789 0.044805437 -0.064489685 -0.01794932
-0.08796557 0.019382793 -0.060863532 -0.07274918 -0.074737065 -0.038744897 -0.048884764 -0.119959205
-0.11858886 -0.08136955 -0.046675634 0.015353059 -0.09656833 0.06495357 0.027913716 -0.068259805
0.105490446 -0.035197362 0.062006336 -0.04589501 -0.05104204 -0.0053153248 -0.015524072 -0.09121914
-0.13472573 -0.009143616 0.036826283 -0.021144068 0.015393578 -0.07214537 -0.07987638 -0.09772196
0.01981649 0.050381012 -0.027089695 -0.078541875 0.09554911 -0.023976477 0.038289413 0.027519217
00000000: 7633 cdbc f11b d3bc 21a2 d1bd 5d78 2fbd
00000010: 4499 013d a401 d73c fb80 dfbc 9068 91bd
00000020: 603a a3bc 424d d03d 231b 07bd ade8 f03d
00000030: 7d2e 733d 83c3 fbbd b458 ab3d 2be3 2dbe
00000040: 99d0 943c 8799 5fbd 73c2 8fbd 4ed7 71bd
00000050: d85c 9fbd ec61 12bc 8651 8abd bdd6 d1bd
00000060: 3c61 80bd 1fe2 7ebd 01c9 47bd 91cb f1bb
00000070: 1d4a ab3d 6cb8 b63d 55f7 67bd 38e8 74bd
00000080: c452 263c 5513 513d 3be9 883d ad2d 2c3d
00000090: 5a39 62bd fd1d 1d3e 8346 7e3d ceb3 13bd
000000a0: 348e eebc f9d8 a13d 90e0 31bc 1b0d 3f3c
000000b0: 6410 983d 2794 733c a5c5 613d 8b5a 3bba
000000c0: c58a dd39 55bb 553d b57e 3e3d 994d 26bd
000000d0: 91b3 9d3d 42fa fbbd f90c b2bc 9160 e6bd
000000e0: 7ca7 833d 0179 5a3d d9b2 edbd fcd8 ac3d
000000f0: 3a91 e33d dcfc 013d 73cd 253d 8b91 4bbd
00000100: 5f6c 8d3d b4fa 14be 07d5 713d 4968 13bd
00000110: 97a3 a7bd 621f c5bd 3e18 88bd d6d4 fcbc
00000120: 50e4 92bb 419b 0c3d 6022 a4bb 36a4 d23d
00000130: bd9e cbbb b0c6 02be 1a51 093e b029 183d
00000140: 3293 16bd ed41 1a3d f98a b13d 60c7 cfbc
00000150: ef31 7bbd 83b4 e53d b659 bdbd 1a10 f9bc
00000160: 835e e7bb f0a7 9abc b55b 4e3c db4e 5dbe
00000170: 4be2 c0bd 2ee7 d43c bb6a b0bd e08d 3a3e
00000180: 3594 90bd 3941 3c3c fa85 66bd 0e7a a9bd
00000190: e1c5 bbbd d005 1a3d faba 93bc 7d42 02bd
000001a0: b4b2 78bd 3b33 3fbd ffa4 5b3d 63cb 2d3d
000001b0: da6b 3cbd 3605 84bc f90a 7cbd 1df8 0f3e
000001c0: 1285 133e fd34 f0bc f556 ca3d 7c8b 99bd
000001d0: 9639 383c a16a e7bd 7c07 e5bd 5045 ba3d
000001e0: d8d2 02be 3235 14be 8053 97bd 329c b1bc
000001f0: e12e fdbd c646 aebc ec00 52be ec61 e8bd
00000200: 3d99 54b9 6b37 473d 42a7 1cbe 70ad f3bd
00000210: df52 dcbd d43b 1d3c d043 ecbd bbc4 373d
00000220: d17e de3a c1db 11bd 0957 afbc 9e23 8f3d
00000230: 0c76 edbb 42ef 15bc 8123 333d ccf4 0cbd
00000240: 9253 f5bd 7f26 60bd ca4e 2bbd 35dc 853d
00000250: ea76 39be d326 12bd b1d9 9bbd 20da 2cbd
00000260: caee 33bd 973f 95bc da8c 1bbd f7e0 83bc
00000270: 76b2 66bd 2511 00be fcec f0bb 13f7 01be
00000280: 45ca f6bd 3226 0abc 6c89 47be ed0f bbb9
00000290: 0211 aa3d b8eb fcbd ac86 2bbd 99c0 e6bc
000002a0: 04da 94bd 7076 743d b884 14be 2596 1ebd
000002b0: 6b21 babd a7c8 98bd 0d0c f53c 6e34 3abe
000002c0: 586f 93bc 0231 74bd 78f3 dcbb 3283 c23c
000002d0: 1108 f93c 7eac 2cbe 108a 09be d892 82bd
000002e0: 8523 d83c 197b 8cbd 20e8 dabd c9a9 83bc
000002f0: 4c85 ff3c d032 3b3d 1514 3ebd 43ea efbc
00000300: 1082 b8bd ea6e 083d e2eb 30bd c278 903b
00000310: 35e4 64bd 97c8 863c 2080 fc3c 098a 85bd
00000320: ed06 c8bc a53e d2bd 1969 9dbd 5292 d43c
00000330: 10b9 21be b3c3 75bd eb3c d8bd 78e3 1cbd
00000340: 75df 51be a263 e8bd c847 2fbc cbbc c1bd
00000350: 4ce0 473d e885 373d 2b13 84bd 740a 93bc
00000360: 4b27 b4bd aac8 9e3c 0a4c 79bd 86fd 94bd
00000370: bf0f 99bd f8b2 1ebd 643b 48bd 2cad f5bd
00000380: b7de f2bd 14a5 a6bd f32e 3fbd 668b 7b3c
00000390: 9ec5 c5bd 6106 853d 4eab e43c cccb 8bbd
000003a0: 600b d83d 1c2b 10bd 5bfa 7d3d 68fc 3bbd
000003b0: 7511 51bd 2d2c aebb ad58 7ebc 1ad1 babd
000003c0: 8bf5 09be 1bcf 15bc 28d7 163d 5336 adbc
000003d0: 5935 7c3c f4c0 93bd 3a96 a3bd 7322 c8bd
000003e0: 3156 a23c 525c 4e3d 35eb ddbc 90da a0bd
000003f0: 40af c33d 516a c4bc 5cd5 1c3d fb6f e13c

bnin.running_mean f4 [1824]
-3.9495945 -0.8961678 -0.96673065 -5.7695165 -4.015044 -8.590955 8.668845 1.7410312
-5.2072306 -8.513824 -7.014009 -4.369052 8.101786 8.597453 -0.65622354 7.575326
5.832332 -7.6041636 -6.002703 2.0818222 -4.5668902 -1.6763767 -2.8643537 3.0522842
-1.0158687 9.491981 -6.1599755 -4.5354223 -2.7172961 -6.4032345 5.517074 5.2469983
0.24199763 -7.1672506 4.0534835 8.525438 7.116119 4.021385 -6.677657 -3.786569
6.640577 4.238326 8.514004 4.4924364 -5.29738 0.63402474 2.7615812 -6.7290354
-6.9388003 -2.5421467 9.258099 4.253161 -4.405867 -5.0924134 5.4349346 -7.7763724
5.1931143 -8.061685 -1.5413352 8.261476 9.087863 6.909598 -1.8817697 -7.3890586
-0.91341233 -2.3096173 2.1521208 -0.44295073 1.5053463 -4.7564144 2.0352252 0.57851845
-0.1076975 -3.9186473 0.011371609 -1.9326328 3.442703 5.4769692 -2.8303525 3.1922607
2.1750624 -5.3478174 0.75065416 1.638557 -4.0210104 -1.9855182 2.0210154 0.17652719
1.0957007 2.2696211 -6.6421185 1.997423 1.9174421 -0.14102964 6.2361665 1.9989059
0.97862476 -3.446954 -0.16946596 2.6766224 1.9505308 5.2957926 -3.4938989 -3.417045
1.2137237 3.6586833 3.351164 3.427904 0.20229426 -1.1862693 3.9569814 -4.3705206
-5.7671285 1.7464972 2.6044793 -0.89589256 -1.2166976 -1.939994 -0.65489876 -3.754866
2.1426334 -3.8891716 3.1048362 1.6309628 2.311629 1.2341675 -3.9916055 -5.578428
9.812455 45.7202 -18.733023 -21.32975 -23.904535 8.850334 2.709489 15.972294
-13.141965 7.499778 -19.282444 -9.759654 -8.329386 -35.91195 -12.948942 7.081315
19.89503 40.13212 -29.752604 -26.955051 42.385353 33.357327 -15.025528 33.052437
-26.127506 6.7585135 29.647459 -25.335356 -37.8731 -11.025793 -10.415072 21.328583
10.49224 48.71378 -20.267925 -24.507706 -26.396812 9.2803955 4.429908 16.91632
-15.703823 7.01368 -22.100546 -11.0352745 -9.169568 -38.787186 -12.444668 8.334967
21.591652 42.777145 -32.844532 -28.758749 45.254814 36.13279 -17.288834 36.0448
-28.30143 8.768465 31.66396 -28.656122 -41.95377 -13.544476 -12.629116 22.951468
-7.7065096 -27.526093 11.084915 10.277207 12.836302 -10.917658 2.1840048 -7.913482
5.815188 -9.579296 8.954744 3.0530477 10.903381 27.455479 4.3964114 0.91267484
-7.724446 -28.81485 15.659142 16.687798 -28.513798 -21.198584 9.141256 -17.660324
15.063511 0.6017161 -22.890821 14.058944 22.273338 4.6017437 13.323205 -8.798289
-2.0680473 -7.5972 1.1066877 2.1818695 2.0183964 0.23736356 0.30582103 -3.6031666
0.30746716 -0.93617177 1.7721605 2.235564 3.1709628 5.546777 4.786816 -1.4965811
-4.344592 -5.4764504 2.8977141 3.265721 -6.8599386 -5.6329455 -0.18659751 -5.2982726
3.8755822 -0.15088895 -2.1764255 1.5452629 4.594252 -0.26951522 -0.8174906 -4.723415
00000000: 28c6 7cc0 416b 65bf a97b 77bf e19f b8c0
00000010: 3e7b 80c0 8d74 09c1 97b3 0a41 1cda de3f
00000020: a2a1 a6c0 a038 08c1 c372 e0c0 46cf 8bc0
00000030: eaa0 0141 2b8f 0941 44fe 27bf 1269 f240
00000040: 77a2 ba40 4f55 f3c0 2516 c0c0 933c 0540
00000050: f723 92c0 8393 d6bf 9251 37c0 a058 4340
00000060: fc07 82bf 27df 1741 851e c5c0 2e22 91c0
00000070: 2ee8 2dc0 4ce7 ccc0 df8b b040 69e7 a740
00000080: 3ace 773e 1e5a e5c0 23b6 8140 3268 0841
00000090: 3fb7 e340 30af 8040 5eaf d5c0 2657 72c0
000000a0: 9b7f d440 5ea0 8740 5c39 0841 0ac2 8f40
000000b0: 2384 a9c0 724f 223f bfbd 3040 4254 d7c0
000000c0: a70a dec0 88b2 22c0 2c21 1441 e519 8840
000000d0: ddfc 8cc0 0df5 a2c0 fcea ad40 0bd8 f8c0
000000e0: fe2d a640 a9fc 00c1 794a c5bf 012f 0441
000000f0: e367 1141 6d1b dd40 d4dd f0bf 2b73 ecc0
00000100: 64d5 69bf c5d0 13c0 59bc 0940 70ca e2be
00000110: 30af c03f 8c34 98c0 2141 0240 c919 143f
00000120: 8290 dcbd 1ecb 7ac0 fc4f 3a3c 8360 f7bf
00000130: 3f55 5c40 5543 af40 7f24 35c0 004e 4c40
00000140: 3934 0b40 5221 abc0 df2a 403f 3cbc d13f
00000150: 1eac 80c0 7625 febf 5158 0140 8bc3 343e
00000160: ec3f 8c3f 7941 1140 3c8c d4c0 8fab ff3f
00000170: be6e f53f 136a 10be ad8e c740 26dc ff3f
00000180: 2787 7a3f e59a 5cc0 7c88 2dbe c84d 2b40
00000190: feaa f93f 2277 a940 0a9c 5fc0 deb0 5ac0
000001a0: 4c5b 9b3f de27 6a40 7979 5640 c762 5b40
000001b0: 3a26 4f3e acd7 97bf 2f3f 7d40 4edb 8bc0
000001c0: 518c b8c0 388d df3f caaf 2640 3759 65bf
000001d0: bfbc 9bbf b951 f8bf 72a7 27bf b94f 70c0
000001e0: e820 0940 30e8 78c0 a3b5 4640 64c3 d03f
000001f0: bbf1 1340 33f9 9d3f 7776 7fc0 7b82 b2c0
00000200: d1ff 1c41 7ce1 3642 3bdd 95c1 54a3 aac1
00000210: 7d3c bfc1 f89a 0d41 4568 2d40 848e 7f41
00000220: 7d45 52c1 2efe ef40 7242 9ac1 8b27 1cc1
00000230: 2a45 05c1 d6a5 0fc2 de2e 4fc1 229a e240
00000240: 0529 9f41 4a87 2042 5505 eec1 f2a3 d7c1
00000250: 9a8a 2942 e76d 0542 9068 70c1 b235 0442
00000260: 2205 d1c1 be45 d840 ff2d ed41 cfae cac1
00000270: 0e7e 17c2 a669 30c1 23a4 26c1 f0a0 aa41
00000280: 37e0 2741 e9da 4242 b624 a2c1 c80f c4c1
00000290: ac2c d3c1 807c 1441 cec1 8d40 a054 8741
000002a0: dc42 7bc1 1170 e040 ebcd b0c1 7c90 30c1
000002b0: 8db6 12c1 1426 1bc2 5c1d 47c1 065c 0541
000002c0: b4bb ac41 cc1b 2b42 cd60 03c2 eb11 e6c1
000002d0: ee04 3542 fa87 1042 884f 8ac1 e02d 1042
000002e0: 5469 e2c1 a24b 0c41 ca4f fd41 bd3f e5c1
000002f0: a9d0 27c2 2cb6 58c1 dc10 4ac1 9b9c b741
00000300: ba9b f6c0 7035 dcc1 d05b 3141 716f 2441
00000310: 7e61 4d41 baae 2ec1 bcc6 0b40 3f3b fdc0
00000320: 0516 ba40 cc44 19c1 a246 0f41 2265 4340
00000330: 4074 2e41 d2a4 db41 67af 8c40 0fa5 693f
00000340: a92e f7c0 d084 e6c1 d88b 7a41 9c80 8541
00000350: 421c e4c1 b396 a9c1 9642 1241 5848 8dc1
00000360: 2404 7141 110a 1a3f 6720 b7c1 6ff1 6041
00000370: cc2f b241 7c41 9340 d92b 5541 cbc5 0cc1
00000380: e35a 04c0 431c f3c0 f1a7 8d3f c0a3 0b40
00000390: 682d 0140 6f0f 733e 9394 9c3e 489a 66c0
000003a0: 566c 9d3e f4a8 6fbf 28d6 e23f 7b13 0f40
000003b0: 0ef1 4a40 327f b140 992d 9940 f88f bfbf
000003c0: e606 8bc0 153f afc0 2674 3940 9301 5140
000003d0: 9e84 dbc0 1741 b4c0 6b13 3fbe 738b a9c0
000003e0: 8a09 7840 a282 1abe 8e4a 0bc0 2dcb c53f
000003f0: 1d04 9340 e6fd 89be 1047 51bf 3726 97c0

bnin.running_var f4 [1824]
31.158512 94.159096 34.509197 74.28251 64.94147 33.063225 55.862446 25.039797
43.242798 30.907423 85.56118 33.528538 49.064125 31.160313 33.046494 51.884
74.535645 51.141468 114.61297 50.86302 55.746838 64.89722 33.553318 105.54421
39.279984 75.65115 19.79712 94.45756 112.48497 54.34878 21.958626 74.00955
23.295734 136.89407 45.43351 85.55705 74.41383 47.026173 50.615387 33.25976
46.75874 43.374924 87.23067 40.373127 60.09049 80.65228 49.501137 64.56577
91.47096 90.417336 115.55533 65.10785 97.003 80.7107 38.14573 126.363235
53.384018 70.02668 71.54487 104.21724 136.90582 48.624607 66.21673 97.02229
25.104378 198.20279 46.281517 32.472134 56.86928 73.77145 24.40442 23.070017
16.27193 51.542233 31.568195 16.17593 77.08479 238.46909 21.485605 24.513012
33.873013 231.70474 71.20625 71.776115 213.31827 117.68373 34.59082 78.05553
60.208145 20.3383 203.86453 70.82936 129.62619 13.968468 106.14624 36.487087
19.048653 212.54453 31.155207 73.08154 72.15071 30.641848 36.841057 61.604633
31.183123 25.224226 85.90049 44.02549 44.33226 95.81629 46.100487 43.66121
114.76665 102.098755 113.57023 57.03008 142.12738 114.248985 28.980276 151.75797
73.76619 46.655296 55.232197 75.60975 159.20004 29.52203 31.25258 119.716225
32.86426 712.2605 100.10251 182.7665 201.71106 15.938407 24.783224 118.58731
69.21688 11.889957 155.64084 59.40512 40.836433 353.37408 113.37149 61.715828
232.50917 382.31345 338.4397 211.33017 522.5214 358.27658 74.04117 396.87573
240.23088 55.56354 180.20593 220.19179 469.23593 58.31632 26.574072 249.59776
49.580265 890.8255 140.93694 191.13988 239.01993 62.24959 18.899395 112.72244
71.82998 48.064693 168.2752 55.11369 89.58267 605.70233 66.77961 35.35343
193.09549 681.55853 388.1661 282.93582 772.2649 478.686 105.07637 445.4304
291.35492 35.636974 403.90204 267.41376 610.53827 56.4054 88.437965 208.08179
45.886196 841.47833 114.06399 297.6818 277.48795 77.45685 96.809555 182.07076
122.52007 59.62834 295.40146 135.78749 86.85587 305.90176 191.06601 179.20259
424.83633 374.4844 463.9284 233.54549 549.29974 438.85843 90.205315 593.9143
301.42548 161.66847 176.24724 298.75006 627.02563 106.2358 107.776924 441.57938
10.353392 98.05777 25.848166 38.33305 40.66607 12.117523 18.160862 27.898308
20.064787 9.727869 33.631756 20.504122 27.21224 57.405838 30.973877 19.780832
42.04451 54.530453 58.66147 39.235737 73.097145 47.941975 20.09898 60.485863
35.151524 22.632555 28.184034 59.019707 70.49152 19.295279 17.469067 44.914177
00000000: a244 f941 7551 bc42 6b09 0a42 a590 9442
00000010: 08e2 8142 be40 0442 2573 5f42 8151 c841
00000020: a0f8 2c42 6742 f741 531f ab42 391d 0642
00000030: aa41 4442 5248 f941 9c2f 0442 3789 4f42
00000040: 4012 9542 dd90 4c42 d739 e542 bc73 4b42
00000050: c3fc 5e42 60cb 8142 9936 0642 a316 d342
00000060: b41e 1d42 644d 9742 8060 9e41 45ea bc42
00000070: 4ef8 e042 2765 5942 44ab af41 e404 9442
00000080: aa5d ba41 e2e4 0843 eabb 3542 361d ab42
00000090: e2d3 9442 cd1a 3c42 2876 4a42 ff09 0542
000000a0: f308 3b42 ec7f 2d42 1a76 ae42 157e 2142
000000b0: a95c 7042 f84d a142 2a01 4642 ad21 8142
000000c0: 22f1 b642 add5 b442 541c e742 3837 8242
000000d0: 8901 c242 e16b a142 3a95 1842 fab9 fc42
000000e0: 3c89 5542 a90d 8c42 f916 8f42 3a6f d042
000000f0: e4e7 0843 997f 4242 f76e 8442 6a0b c242
00000100: c4d5 c841 ea33 4643 4620 3942 77e3 0142
00000110: 257a 6342 fb8a 9342 413c c341 658f b841
00000120: ea2c 8241 3f2b 4e42 aa8b fc41 4e68 8141
00000130: 6a2b 9a42 1678 6e43 85e2 ab41 a61a c441
00000140: f77d 0742 6ab4 6743 9a69 8e42 5f8d 8f42
00000150: 7a51 5543 125e eb42 005d 0a42 6e1c 9c42
00000160: 24d5 7042 d7b4 a241 52dd 4b43 a2a8 8d42
00000170: 4ea0 0143 d87e 5f41 e04a d442 c7f2 1142
00000180: a463 9841 668b 5443 dd3d f941 c029 9242
00000190: 2a4d 9042 8122 f541 3e5d 1342 256b 7642
000001a0: 0977 f941 37cb c941 0dcd ab42 1a1a 3042
000001b0: 3c54 3142 f1a1 bf42 e666 3842 14a5 2e42
000001c0: 8688 e542 9032 cc42 f523 e342 cd1e 6442
000001d0: 9c20 0e43 7b7f e442 9bd7 e741 0ac2 1743
000001e0: 4a88 9342 069f 3a42 c5ed 5c42 3138 9742
000001f0: 3633 1f43 1e2d ec41 4905 fa41 b56e ef42
00000200: 0175 0342 ac10 3244 7c34 c842 39c4 3643
00000210: 08b6 4943 b703 7f41 0b44 c641 b42c ed42
00000220: 0b6f 8a42 443d 3e41 0ea4 1b43 d89e 6d42
00000230: 8258 2342 e2af b043 34be e242 02dd 7642
00000240: 5982 6843 1f28 bf43 4838 a943 8654 5343
00000250: 5fa1 0244 6723 b343 1415 9442 1870 c643
00000260: 1b3b 7043 1141 5e42 b834 3443 1931 5c43
00000270: 339e ea43 e943 6942 b397 d441 0799 7943
00000280: 3152 4642 d5b4 5e44 dbef 0c43 cf23 3f43
00000290: 1a05 6f43 95ff 7842 f631 9741 e471 e142
000002a0: f3a8 8f42 3f42 4042 7446 2843 6b74 5c42
000002b0: 542a b342 f36c 1744 298f 8542 ea69 0d42
000002c0: 7218 4143 bf63 2a44 4315 c243 c977 8d43
000002d0: f410 4144 cf57 ef43 1a27 d242 17b7 de43
000002e0: 6ead 9143 438c 0e42 76f3 c943 f6b4 8543
000002f0: 73a2 1844 219f 6142 3de0 b042 f014 5043
00000300: 778b 3742 9d5e 5244 c320 e442 45d7 9443
00000310: 75be 8a43 e8e9 9a42 7e9e c142 1d12 3643
00000320: 470a f542 6c83 6e42 63b3 9343 99c9 0743
00000330: 35b6 ad42 6df3 9843 e610 3f43 dd33 3343
00000340: 0d6b d443 013e bb43 d6f6 e743 a58b 6943
00000350: 2f53 0944 e16d db43 1f69 b442 847a 1444
00000360: 76b6 9643 21ab 2143 4b3f 3043 0260 9543
00000370: a4c1 1c44 bb78 d442 c98d d742 29ca dc43
00000380: 7ea7 2541 941d c442 0bc9 ce41 0b55 1942
00000390: 0eaa 2242 60e1 4141 7249 9141 bc2f df41
000003a0: af84 a041 5aa5 1b41 eb86 0642 7108 a441
000003b0: abb2 d941 949f 6542 80ca f741 253f 9e41
000003c0: 942d 2842 2f1f 5a42 58a5 6a42 65f1 1c42
000003d0: bd31 9242 95c4 3f42 b6ca a041 86f1 7142
000003e0: 299b 0c42 790f b541 e778 e141 2e14 6c42
000003f0: a9fb 8c42 bb5c 9a41 a6c0 8b41 1ea8 3342
