PoseCorrection/Data/model_corr.pt (torch_old, 972473 bytes, 40 tensors)

gcin.weight f4 [25, 128]
00000000: 9f38 0cbd 694d c13c 4091 1abe 65ce 27be
00000010: 54cb 46bd 707a c63d fd09 2fbd 8f11 7b3d
00000020: 0086 8d3c e54e ff3b a56e d4bd 4ede 85bb
00000030: 0617 5ebd 6be1 91bd ca62 11be ccdc 5ebb
00000040: 5c78 a4bc 2e58 973c bbc0 bcbd c274 50bd
00000050: 6d55 253d 4c9e 903c 9234 e7bb ab36 b7bc
00000060: 3ca7 9abd 7b05 82bb 119c fcbc e208 9abd
00000070: 6bb2 3abe a2a6 89bd 24df 63bd ef8b 3a3d
00000080: 0388 bfbd 8f3f dfbd 2c11 1fbd f01f b2bd
00000090: cea6 19be 21af 033d 02f4 0a3b 5ec6 85bb
000000a0: 4f1e 4bbd 1051 02be aba9 e63d cd97 eabd
000000b0: eb52 3ebe 986d c4bd a3d0 84bc 6270 c83c
000000c0: 569a ddbd b310 49bd 5f00 423d f1fe c43d
000000d0: b0b7 623d 8658 9bbd 9c95 583c ab4e d5bd
000000e0: 28ce 893b 7465 ebbd 2cd6 96bd 3058 24be
000000f0: da18 dc3b e431 3ebd fd91 56be de10 433c
00000100: 405a 7bbc deaf 19bd 6ac5 b13d 7304 213d
00000110: 0b79 da3d 786c a33c ec74 05be 10e3 d5bd
00000120: 76f3 f03d afdc 8f3b ba30 73bd 0fb1 2fbd
00000130: fc5b ca3c 7c8b ddbd 0f96 e93c ea0a dbbd
00000140: 5dbc dbbc 55fb 9e3c 265e 813c 6c38 27be
00000150: 4307 393d 814b 913d 3329 a3bd d84b b9bd
00000160: bb37 d8bc 6f70 69bd d331 31bd 831a 28bd
00000170: c928 583b 6ef3 e0bc 4a73 bcbd 9fbc a2bd
00000180: 2c59 053c bf3e a23d 9999 babd 727e c2bd
00000190: 0037 c3bb 46d0 38bb 5268 f1bd dc0a 2bbe
000001a0: bdf2 8ebe f69b 143c 4545 b9bd 5570 a6bd
000001b0: 2f7e afbd 976e e63d 6f2e aabd 8e41 b63c
000001c0: 4249 b8bd 94b5 e83b e5b3 c73c 5260 73bd
000001d0: 913d afba 562f cbbc 2bb9 133c 37b2 ab3b
000001e0: 6680 603d 73f4 413c d67c a3bd e2f0 453c
000001f0: e189 bebd 1dec a8bd 4c34 d9bb 2207 b4bd
00000200: 2cbb 8fbd 28f7 c03d 860c 243d dd80 cd3d
00000210: 5d48 863d 84cd d73b b497 953d 7a58 aebd
00000220: 144a 2d3e 708b 2cbd 0d76 ba3d 585d 1b3e
00000230: 6bd1 203e 52c7 613d 259a b13d c622 1ebe
00000240: 69cd debd 47a8 fcbd 0d56 923d 8d7b d1bd
00000250: 91e3 aabd 2bb1 ce3d 874c 63be 7409 71be
00000260: 8b70 983c d1a5 3e3d adb5 913d 49f6 8d3d
00000270: 88e6 613d 01fd 1a3d 4217 b7bd 96dc 3bbe
00000280: f660 303d 1c62 a6bd d6d0 4fbe f45a 07be
00000290: 3aee b03d 714c 5abe 6fb3 34bd e888 933e
000002a0: cfbd 49be ac1c c13b 2bb7 733d f4a3 003e
000002b0: 3f3e 5f3d 1d8a 6c3b f309 a5be 55af 82bc
000002c0: 9c97 7b3d a697 24be 45e2 4e3c e356 03be
000002d0: 9bec c0bd 778d 1e3d 8c2b 433d 5ff8 573c
000002e0: 3824 0d3e 0441 723d a787 853d d620 adbd
000002f0: a428 32be b8a7 3f3e 387b 1c3c 76f1 f33d
00000300: f7de 5bbe db9d cabd f0e0 03bd 1ffa bcbd
00000310: b374 aebd dedf 9e3e 9608 583b 4a00 503d
00000320: 53ae 6cbd d185 2c3e b065 2fbe 21de ce3d
00000330: 06f6 edb9 20ba 153e 85a2 7bbd 589b 053e
00000340: 5268 343e 1bc6 f03c c37f 87bd 7fd7 093e
00000350: dfcc f93d d4ce b2bd 8dec 16bc 2541 92bc
00000360: 564f 32be b4bb 81bc a1fb 933e e981 96bd
00000370: cb2b f23d 7252 2c3e 44d8 933d 93eb 433d
00000380: 5af2 f7bd 3321 2cbc 6212 7cbc f3f1 ffbb
00000390: 3ba2 c23d f93a a0bc 6829 28bd 18b4 713d
000003a0: 93da 6d3d 51f7 c33d 4745 3f3e 3a7d f9bc
000003b0: 9c2d 6b3d 90e9 e7bd df32 013b 59e8 ddbc
000003c0: 5d58 6c3d 28e1 903c bbb3 f83d f9d0 d63d
000003d0: 0765 1f3e 519d 89be ff08 7d3e c1ef 59be
000003e0: 7840 b8bb fcfe 02be 8edc 8abd 2ceb 4bbd
000003f0: 84b1 cc3b 6147 143c 2706 7b3c 1b09 6cbd
-0.034233686 0.023596482 -0.15094471 -0.16387327 -0.048533753 0.09691322 -0.042734135 0.061296042
0.01727581 0.0077913874 -0.10372666 -0.0040853387 -0.054221176 -0.07123073 -0.14197841 -0.0034006117
-0.020076923 0.018474665 -0.09216448 -0.0508926 0.04036467 0.017653607 -0.0070558274 -0.022364935
-0.07551429 -0.0039679385 -0.030836137 -0.075212255 -0.18232124 -0.06721236 -0.055632725 0.045543607
-0.09352114 -0.10900795 -0.038834736 -0.08697498 -0.15005037 0.032149438 0.002120257 -0.004082485
-0.04958945 -0.12726235 0.1126283 -0.11454735 -0.18586318 -0.09591216 -0.016212767 0.02446765
-0.10820453 -0.04908819 0.047363635 0.09618939 0.05535096 -0.07585244 0.013219263 -0.10415395
0.004205484 -0.1149396 -0.07365069 -0.16049266 0.0067168297 -0.0464343 -0.20954128 0.011905877
-0.0153413415 -0.037521236 0.08680232 0.039310884 0.10667618 0.019949183 -0.13032883 -0.10443699
0.117651865 0.004390321 -0.05937264 -0.042893466 0.024702065 -0.1081762 0.028513936 -0.10695441
-0.026823217 0.019406954 0.015791964 -0.16330117 0.04517294 0.07094479 -0.079668425 -0.09047669
-0.026393762 -0.05699199 -0.043260407 -0.04104091 0.0032983294 -0.027459826 -0.09201677 -0.07946133
0.008138936 0.07922124 -0.09111328 -0.09496774 -0.0059574842 -0.0028200313 -0.11787476 -0.16703361
-0.2791957 0.009070387 -0.09046415 -0.081268944 -0.085689895 0.11251562 -0.08309638 0.022248056
-0.08998348 0.007101724 0.024377773 -0.05941803 -0.0013369789 -0.024802845 0.009016315 0.0052397507
0.05480995 0.011838066 -0.07982795 0.012081357 -0.09303642 -0.0824816 -0.0066285487 -0.08790423
-0.07018122 0.09422141 0.040051006 0.10034344 0.06556771 0.0065857787 0.07304326 -0.08512969
0.1692279 -0.042125165 0.09104548 0.15172327 0.15704887 0.055121727 0.08671979 -0.15442953
-0.10879023 -0.12336784 0.07145319 -0.102286436 -0.08344186 0.10092386 -0.22197162 -0.23538762
0.018608352 0.046544854 0.0711473 0.06931741 0.055151492 0.03783894 -0.08939983 -0.18345866
0.04306122 -0.08124182 -0.20294508 -0.1321829 0.08639188 -0.21318223 -0.044116434 0.2881539
-0.19701312 0.0058933105 0.059500854 0.12562543 0.054502722 0.0036093064 -0.32234153 -0.015952745
0.061423883 -0.16073474 0.012627189 -0.12826113 -0.09420129 0.03870913 0.04764895 0.013181775
0.13783348 0.059144035 0.06520014 -0.084535286 -0.17398316 0.18716323 0.009550862 0.119112894
-0.21471773 -0.0989339 -0.03219694 -0.09227394 -0.08518352 0.31030172 0.0032964102 0.050781526
-0.057783436 0.16847922 -0.17128634 0.101009615 -0.00045387464 0.14621782 -0.061434288 0.1304754
0.1761792 0.029391339 -0.066161655 0.13461111 0.12197279 -0.087308556 -0.009211672 -0.017853329
-0.17413077 -0.015836574 0.28902915 -0.07348997 0.11824759 0.16828325 0.07218984 0.047832083
-0.12106772 -0.010505962 -0.015385242 -0.007810825 0.09503599 -0.01955937 -0.041055113 0.05900964
0.058069777 0.09568656 0.18678771 -0.03045522 0.057416543 -0.113238454 0.001971416 -0.027088331
0.057701457 0.017685488 0.12143656 0.10489077 0.15565883 -0.26877835 0.24710463 -0.21282865
-0.0056229196 -0.12792581 -0.06780349 -0.049784824 0.0062467474 0.009050221 0.015321291 -0.05762587

gcin.adj f4 [57, 57]
00000000: 7c2f 96bc c9bd afbd 0e18 37bc 111c 0fbd
00000010: 2bb0 acbd c53c 473d 08ba bc3d d03f 23be
00000020: d6d1 04bd 6945 553e 462d d13d 6e6d 343c
00000030: e798 8cbd 9662 bfbd bf99 adbd a3fb 10bd
00000040: a885 69bc 0bd3 fabc 6262 223e 2b4e eb3c
00000050: 7f01 00be 88cb abbd a51f 0dbe febc c8bd
00000060: fa42 d9bd cc96 f43d 7d9f d53e bcc8 7cbd
00000070: b0b2 c93d eb15 203e dfd8 ff3d a8b0 a1bc
00000080: 3407 c53a 6b20 863d 42f4 96bc 9a2e 01be
00000090: 00c7 8fbd c137 cd3d 5007 96bd 45c5 c2bd
000000a0: b239 f53d 675f e3bd e358 f0bc 9b94 63bd
000000b0: 3ac8 cf3e 1d60 c0bd 1147 57be ec3f c3bc
000000c0: 9aa5 e43d 0ed9 9b3d 9996 8c3d ef43 2f3d
000000d0: 6db4 c8bc 9c83 a8be 0297 a0be 0ccc 14be
000000e0: 0038 28be 1f9b 6fbd ef09 e4bd 610d 83bd
000000f0: 413b 893b 9167 d9bd 6d5f 87bd f21b d83d
00000100: c00c 8f3d ffa1 473d c08c 553e 9231 11bd
00000110: e2a7 24be ec5a 74bc 56e6 ebbb b188 c1bd
00000120: c156 393c 149e 0dbe 5f69 48be ad8f 97bd
00000130: 1cf6 d5bd 1b41 02be 6f7d 52bd b583 0c3e
00000140: 21e6 04bb 59ee 8bbd d4a9 153e 8b28 d03e
00000150: 4853 46bd 3c89 35bc ff3a e93d 6dc0 d33c
00000160: 5e9d 733d abf7 d8bd d122 1c3e 6452 9b3d
00000170: f517 efbd e722 853d 30ac e33d 2ddf 413d
00000180: 2aad 9bbd 096b 723d 2c5a df3c 415c 82bd
00000190: 2acd ffbc 6f1d 273e 18de 91bd 858c 47be
000001a0: 7788 7a3c 16b7 1f3d 400b 5a3d 0fde f83c
000001b0: 7774 e93d f73d af3c de9c 14be 34ce 00bd
000001c0: 6df9 f2bd a861 cf3d 11a2 21bd c918 e1bd
000001d0: e903 abbd a404 983d 3670 c23c 54dd 62be
000001e0: b33a 063e e601 5abc f560 34bd aad2 3a3e
000001f0: 9639 3fbc cc20 3cbc 9df1 663d ae6c b9bc
00000200: 98c9 05be b696 fdbb 76d4 e13d 4f9e 743d
00000210: 05d1 88bd f0db 82bd 4223 4bbe 25c2 52be
00000220: a773 0b3e 99be a13c bdff c5bd ed07 4fbe
00000230: bb75 e5bd 584b 00bd b63a 0bbc d31c acbd
00000240: 9d88 18be f885 943c e338 1fbd 37b0 1dbb
00000250: 684b e93d cf05 a5bd d4dc 9e3d 4e65 bc3d
00000260: 2775 fcbd 6d4d bfbd f14d 1dbe c900 923e
00000270: 3aaa 7f3d 1f21 e9bc db91 44bd 2ff4 043d
00000280: 008e 8fbd 41f1 4b3b 9982 39be dfa9 41bc
00000290: b1cb 5cbd e566 58bd 598a a43c 0bce d1bd
000002a0: 3718 c43d a65f 543c 26e2 e83d 482b 41bd
000002b0: 1562 7ebd 7286 ebbd 2883 e63d 6f2a 453d
000002c0: 348d bebd 7127 563e 8ed5 463d 4414 42be
000002d0: 13bd f53d 0f9a 243e 2992 f43c 629e fb3c
000002e0: 9b33 12ba 73d0 4bbd edce fd3c 3cf8 a83d
000002f0: 936e a5bd 66e1 b73d f678 0f3e fae0 56bd
00000300: 04ac cabd efda 653e 5e51 453a e81a 8e3d
00000310: 58a0 f43d 1ccc 4c3d 6729 f43d e839 6b3d
00000320: c96b 0abd dd44 8a3a 3089 a13b 07fc 52be
00000330: 8883 f73b 1e6d 373e 0bca 71bd 34e9 2bbd
00000340: a8b4 8a3d f4d6 acbc f2d6 093d 62d8 e03d
00000350: 22ef 013d 704e 75bb f63b 9f3d 285d e83d
00000360: 522b 4c3e 2de0 8ebd 43a3 34be d3cf 683d
00000370: 84e4 433e 5c82 0fbe bad5 313d 6350 3f3e
00000380: 37fb 323e 2ce6 1ebe 2a90 3ebb e489 c03d
00000390: a5fa 483d be3d c7bc 2cbf d53a 3218 d73d
000003a0: 4402 4fbc 1f00 073e 1a8f fc3c 6fbb 8c3c
000003b0: 5361 bf3d 301d 21be 11f9 ecbc 1485 513d
000003c0: 52a5 fa3d d44f 8e3d 2cc3 7bbe e8ce 01be
000003d0: 2dd2 82bd 96ce efbc b9b2 dc3d 151a c63d
000003e0: daaf 393d 1a98 9e3d 3c3f 19be a502 3dbd
000003f0: 5377 9f3d ccb4 e63d c512 103e a45c 453e
-0.01833319 -0.085811205 -0.011175169 -0.034938876 -0.08432039 0.04864194 0.0921517 -0.15942311
-0.032426678 0.20827259 0.10213713 0.011012418 -0.06865101 -0.09344976 -0.0847659 -0.03539623
-0.014253058 -0.030618211 0.15857843 0.028723797 -0.1250057 -0.0838843 -0.13781603 -0.098016724
-0.10608478 0.11942825 0.41723242 -0.061714873 0.09848535 0.15633361 0.12492537 -0.019737557
0.0015032054 0.06549152 -0.018427018 -0.12615433 -0.07020378 0.100204 -0.073256135 -0.095102824
0.11973895 -0.11102181 -0.02933926 -0.055561643 0.40582448 -0.09393332 -0.21023203 -0.023834191
0.111643985 0.07609759 0.06864662 0.042789396 -0.024500096 -0.3291291 -0.3136521 -0.14530963
-0.16427612 -0.058497544 -0.11134707 -0.06399036 0.004187972 -0.10615457 -0.06609998 0.10552205
0.06984854 0.048738476 0.20854473 -0.035447665 -0.16079667 -0.014914256 -0.007199089 -0.094499
0.011312188 -0.13829833 -0.19571446 -0.07400451 -0.10447332 -0.12720148 -0.051389154 0.13722117
-0.002027877 -0.068325706 0.14615566 0.40655932 -0.048419267 -0.0110800825 0.11388206 0.025848592
0.05947625 -0.10594114 0.15247656 0.07584074 -0.11674491 0.06500798 0.111168265 0.047331978
-0.07601388 0.059184108 0.027264677 -0.06365252 -0.03122576 0.16319822 -0.07122439 -0.19487198
0.015291325 0.038992964 0.053233385 0.030379323 0.11399167 0.021391852 -0.14512965 -0.03144665
-0.118639804 0.10126048 -0.0394612 -0.109910555 -0.08350355 0.0742276 0.023735147 -0.22154742
0.1310833 -0.013306117 -0.044037778 0.18244424 -0.011671444 -0.011482429 0.056382764 -0.02263483
-0.13065183 -0.0077389134 0.11026852 0.059721287 -0.06680492 -0.06389606 -0.19837669 -0.20581873
0.13618337 0.019744204 -0.09667919 -0.20217867 -0.11204096 -0.031321853 -0.0084978845 -0.08403935
-0.14895864 0.018130288 -0.03887261 -0.002406133 0.11391336 -0.080577485 0.07756963 0.0919901
-0.123270325 -0.0934094 -0.15361764 0.28516224 0.0624182 -0.028458176 -0.04799066 0.032459434
-0.07009506 0.003111914 -0.18116225 -0.011820286 -0.053905193 -0.052832503 0.0200855 -0.10244378
0.09574931 0.0129622575 0.113712594 -0.047160417 -0.062105257 -0.11500253 0.11255485 0.04813617
-0.09304276 0.20913483 0.048543505 -0.18953043 0.11998954 0.16074394 0.02985485 0.030715171
-0.0005577148 -0.04975934 0.030982459 0.08250472 -0.08077731 0.08978538 0.14010987 -0.052460648
-0.098960906 0.22446798 0.0007527078 0.06938726 0.11944646 0.04999934 0.11921959 0.05742827
-0.0337942 0.0010549087 0.004929684 -0.20603953 0.0075535215 0.17912719 -0.059030574 -0.041970447
0.06772739 -0.021098591 0.033652253 0.10978772 0.031722195 -0.0037430786 0.077751085 0.11345893
0.199384 -0.06976352 -0.17640404 0.05683882 0.1913014 -0.14014572 0.043416716 0.18683009
0.17478643 -0.15517491 -0.0029077628 0.094013005 0.04906716 -0.024321433 0.0016307584 0.10502662
-0.0126348175 0.1318364 0.030829955 0.017179219 0.09344735 -0.1573379 -0.028927358 0.051152304
0.122385636 0.0694882 -0.24586171 -0.12676585 -0.06387744 -0.029273313 0.10776276 0.096729435
0.04533372 0.07743855 -0.14965528 -0.0461451 0.07786431 0.11264953 0.1406966 0.19273621

gcin.bias f4 [128]
00000000: a342 aa3d dce6 ab3c e9cb 7ebd 7083 9fbd
00000010: dbfb 803d cb6b b13d a4a7 68bd 2f99 c33c
00000020: 4bab 60bc d5e2 653d c886 4ebd 74e6 5f3d
00000030: db2d b63d 0863 5d3d d341 8fbc db4c a73c
00000040: 4e3a 013d ad15 4dbd d325 2ebd 2c0f acbd
00000050: 7c89 783d 8263 24bd bef6 903d e4aa 8abc
00000060: 5e92 1abd 6206 353d eec2 e4bb 15e3 73bd
00000070: d351 293c 17d1 3bbd 0e52 8fbd d967 70bd
00000080: 9624 033d f917 143b de78 08bd 5e32 fc3c
00000090: 7f71 e1bc 7a9e 8fbd 6e1a 053d 39ad fdbc
000000a0: d3e6 f5bc 68fe 863d d067 8f3d f962 b2bd
000000b0: 3f4a 993d d9c3 a93d 7253 7fbd 9ad4 bdbd
000000c0: 911c 88bd 704b d4bc 8d57 99bb 6f37 b83c
000000d0: b395 a43c 607a b33c a7bb 94bd 2c5b ae3d
000000e0: a209 a03d f387 2f3d 4668 a63c 84bb 4cbd
000000f0: 8af1 363c 074c 7abd dbf7 a03d 2b6d a4bd
00000100: e0fb a23d 3fe6 a43d 4db0 2cbd 34cb 98bd
00000110: e33e fe3c fb13 86bd 2af0 a4bd c340 4fbd
00000120: 1a0e 883d e223 5bbd 3220 12bd c25d 06bd
00000130: 4153 873d f064 ee3c 3e72 363d d1a8 8abc
00000140: 31f1 4cbd 6e98 033d 59cb 093d 77b8 963d
00000150: dd64 aabd f9e8 64bd c4c9 613d 2530 cb3c
00000160: 9f64 703d b7b6 acbc 424b b03d bfa7 003d
00000170: 578b 0abd 93d9 28bd 7472 c83c ae4a a2ba
00000180: e0f3 32bd 7513 35bd 210c e83c 59f1 323d
00000190: 5b68 ad3d 2992 1abd ee89 57bd c5d3 69bd
000001a0: 0644 78bd edc2 be3d a543 37bd c555 22bd
000001b0: 7cdc 863d 8b86 9c3d c7cf a8bd a7c5 51bc
000001c0: 8827 ca3c cbb8 5f3c 558d 52bd 3b3c 92bd
000001d0: 5b49 91bd 0984 db3c 42da 20bd 9d0a a9bd
000001e0: 1c67 ad3d e28b 223d 64c6 d3bc 5efe 6d3c
000001f0: c944 02bd 0dd4 6dbd 482f 99bd e16b 6b3d
0.08313491 0.020984106 -0.062206183 -0.077887416 0.062980376 0.08663138 -0.0568005 0.023876755
-0.013712714 0.056124527 -0.050421506 0.054663137 0.08895465 0.05404952 -0.017487442 0.02042239
0.031549744 -0.0500695 -0.04251654 -0.08401331 0.06067799 -0.04013396 0.07078312 -0.01692719
-0.037737243 0.04419554 -0.0069812452 -0.059542734 0.01033445 -0.0458537 -0.069980726 -0.058692787
0.032017313 0.0022597297 -0.033318393 0.030785736 -0.02751994 -0.07012649 0.03249591 -0.030966388
-0.030017292 0.06591493 0.070022225 -0.08710284 0.074848644 0.08289308 -0.06233544 -0.09269066
-0.066460736 -0.025914878 -0.0046796263 0.02248737 0.020090913 0.021908939 -0.07262354 0.085134834
0.07814337 0.04285426 0.020313393 -0.049983516 0.011165986 -0.06110766 0.07859775 -0.08028635
0.079581976 0.080517285 -0.04216032 -0.07460633 0.031035846 -0.0654678 -0.0805362 -0.05059887
0.06643315 -0.053501017 -0.035675235 -0.03280426 0.06607676 0.029100865 0.044542544 -0.016926201
-0.050034706 0.03212779 0.033641193 0.073594026 -0.083200194 -0.055886243 0.05512406 0.02480323
0.05868971 -0.021083219 0.08608104 0.031409975 -0.03382429 -0.04122312 0.024468638 -0.0012381875
-0.04368961 -0.04420801 0.028326096 0.0436872 0.0846717 -0.037737045 -0.052621774 -0.057086725
-0.060611747 0.09314523 -0.044742245 -0.039632577 0.06585023 0.076428495 -0.082427554 -0.012803472
0.024677053 0.013654898 -0.051404316 -0.07140394 -0.070940696 0.026796358 -0.039270647 -0.082539774
0.08466932 0.039684184 -0.025851436 0.014525978 -0.03180388 -0.058063556 -0.07479721 0.05747593

bn1.weight f4 [7296]
00000000: 1960 623f f838 8d3f 674e 523f c97b 7f3f
00000010: ad42 4a3f 783e 8c3f 44ba 893f 46c1 783f
00000020: ab32 4d3f 3c46 423f ba20 a93f dad6 873f
00000030: c5d8 933f 17a4 8b3f bf3d 863f 27b6 643f
00000040: 6c95 853f 6a63 973f 3d82 683f b415 533f
00000050: 1798 4c3f efbd 613f dea0 863f 5cf4 133f
00000060: 3f11 a23f 13be 753f 561e 8d3f 95f4 933f
00000070: 4a2c 643f 6e0c 4f3f 3ec8 833f 5d71 3b3f
00000080: 2753 8f3f ca18 8c3f c2b3 7e3f 2f67 6f3f
00000090: be5c 793f a0b9 563f 8b04 4f3f d20e 2b3f
000000a0: 49fc af3f 1240 6c3f e0cd 823f 299a 8b3f
000000b0: 6dfc 933f 843e 513f c3ce 713f 2bc5 933f
000000c0: 1810 853f c34d 943f 53d2 9c3f c97b 663f
000000d0: e364 5c3f b86f 8d3f 49f1 493f b7f2 843f
000000e0: 152a 833f bdb9 903f 0f27 7f3f 718f 983f
000000f0: e08f 303f 500b 663f 40a6 853f eff6 813f
00000100: 3015 523f 72f0 3c3f 6a59 313f 9361 833f
00000110: 2229 723f 7bec 553f e106 703f bb25 963f
00000120: 5ccb 9b3f eafc 3c3f 1c54 683f d6db 3e3f
00000130: 58e9 803f 6e34 7e3f 7e37 2d3f d037 613f
00000140: dda7 953f a8a6 6f3f b8cb 823f 81bb 7c3f
00000150: 6b40 863f f8f9 863f defe 7e3f 0044 833f
00000160: 5967 503f 6259 683f 4844 543f af5c 573f
00000170: 49c3 4a3f 4988 903f 2293 983f 97a6 843f
00000180: 537b 653f 9215 793f c6c3 653f 88d9 863f
00000190: 7fae 543f 6b6e 5a3f ec2c 893f ff09 963f
000001a0: 84e3 873f 2361 653f f16b 3e3f 502d 913f
000001b0: f586 863f b12f 893f 5882 7f3f 6f98 973f
000001c0: f700 573f fa73 533f 5f2b 623f 2cad 613f
000001d0: e14b 583f 36dd 723f 61df 593f cfde 3e3f
000001e0: be66 7f3f b2b6 873f f634 943f 4b0f 373f
000001f0: 96ba 843f 225e 9a3f 28a6 5c3f a6e9 943f
00000200: d85c 6d3f 8709 723f 81cc 8e3f a4e1 633f
00000210: acb5 7b3f e2ee 853f 2d14 823f 698b 3d3f
00000220: 46bb 593f 046d 823f 6c76 593f b824 773f
00000230: 391f 593f 0717 823f 933c 623f eb66 8e3f
00000240: 328b 793f 2824 853f 20ba 843f e2b8 873f
00000250: feca 4e3f 9512 703f 0831 2b3f 5b88 683f
00000260: 0e63 893f a931 423f 158a 6d3f b942 6a3f
00000270: fd29 8f3f 085e 723f dd57 643f d433 793f
00000280: 0587 663f 2ef9 783f eb82 923f 4384 5b3f
00000290: 2da6 743f 87c9 623f b71f 673f c329 373f
000002a0: 708a 943f bc9a 683f 7243 6b3f 54cd 4d3f
000002b0: c1aa 583f 6b9f 763f 705d 883f e1d8 8a3f
000002c0: c998 663f 2171 6d3f b4ed 713f a3f5 673f
000002d0: 5223 3d3f a6c0 6d3f 41fd 8d3f e0e0 693f
000002e0: 7f05 993f adf2 523f f320 633f 9923 8c3f
000002f0: 9574 703f 6415 313f 2fc0 803f 1395 613f
00000300: 8709 5e3f 5944 893f f95e 503f 2698 7b3f
00000310: c10c 593f bbd5 863f 5b62 653f a48b 543f
00000320: 20ff 853f 64e6 3f3f 14a5 2f3f 1b86 443f
00000330: df12 783f f60d 5b3f 1b01 703f 388d 8a3f
00000340: 77dc 583f 8c7c 533f c558 753f 3c4b 633f
00000350: 93c4 6b3f 8a6c 813f 0ab7 8f3f 8ade 893f
00000360: e76a 003f 3a12 713f 8c73 573f 6881 7d3f
00000370: 85b5 713f 9f7a 723f 3a73 713f 41ef 783f
00000380: a0a6 703f df7c 373f 9258 8a3f 82ac 7e3f
00000390: 0a39 5e3f f1ca 573f effc 853f 3319 753f
000003a0: 52e0 883f 8e8f 8d3f 9550 773f a30e 673f
000003b0: 21bf 863f fe3d 483f 976f 693f 8b8f 413f
000003c0: e4b8 7d3f ba07 603f 2ea9 483f 4275 833f
000003d0: 513a 893f 85d5 7a3f 9650 863f 759c 513f
000003e0: fc66 6d3f eb5a 853f 7364 843f 034e 6b3f
000003f0: 4f1b 833f c37e 843f 2e59 253f 0ed9 773f
0.88427883 1.103301 0.8215088 0.99798256 0.7900799 1.0956564 1.0759969 0.9716991
0.8015544 0.7588842 1.3213112 1.0612442 1.1550528 1.0909451 1.0487593 0.8934044
1.0436225 1.1827214 0.9082373 0.8245499 0.7991957 0.8818044 1.0517843 0.5779474
1.2661513 0.95993155 1.1024883 1.1559016 0.8913008 0.8087834 1.0295484 0.73219854
1.1197251 1.0945065 0.9949304 0.9351682 0.9740714 0.8387699 0.8086631 0.6681949
1.3748866 0.92285264 1.0219078 1.0906421 1.1561409 0.81736016 0.9445612 1.1544546
1.0395536 1.1586231 1.2251686 0.9003263 0.8609144 1.1049719 0.78883797 1.0386571
1.0247217 1.1306683 0.99668974 1.1918775 0.68969536 0.8986101 1.044136 1.0153483
0.8206358 0.7380439 0.6927706 1.0264152 0.94594014 0.83563966 0.93760496 1.1730264
1.2171435 0.73823416 0.9075334 0.74554193 1.0071211 0.9929875 0.676628 0.8797579
1.1691853 0.9361367 1.021842 0.9872361 1.0488409 1.0545034 0.99607646 1.0255127
0.81407696 0.9076139 0.8291669 0.841258 0.7920423 1.1291591 1.1919901 1.0363339
0.896413 0.9729854 0.8975185 1.0535135 0.8307876 0.85324734 1.0716834 1.17218
1.0616307 0.89601344 0.74383456 1.1341953 1.0509936 1.0717679 0.99808264 1.1843394
0.8398585 0.8259884 0.8834743 0.88154864 0.8449078 0.9486879 0.85106474 0.7455873
0.9976615 1.0602629 1.1578662 0.7150771 1.0369442 1.2059977 0.86191034 1.1633804
0.92719793 0.9454579 1.115616 0.89016175 0.98324084 1.0463526 1.0162407 0.7404085
0.8505138 1.0189519 0.8494632 0.96540403 0.84813267 1.0163277 0.8837368 1.1125158
0.9747802 1.0401659 1.0369301 1.0603297 0.8077849 0.93778354 0.6687169 0.9083306
1.0733354 0.75857025 0.9278882 0.9150806 1.1184689 0.9467473 0.8919657 0.9734471
0.90049773 0.9725522 1.1446203 0.8574869 0.95566064 0.88588756 0.9028277 0.715481
1.1604748 0.90861106 0.9189979 0.8039143 0.8463555 0.96337 1.0653515 1.0847436
0.9007688 0.92750746 0.9450333 0.90609187 0.7388202 0.92872083 1.1092912 0.91358757
1.1954802 0.82401544 0.8872215 1.0948364 0.9392789 0.69173265 1.005865 0.88118094
0.8673329 1.0723983 0.81394917 0.98279035 0.84785086 1.0533975 0.89603204 0.83025575
1.0468483 0.74960923 0.68611264 0.7676713 0.96903795 0.8556818 0.93751687 1.0824347
0.847114 0.8261192 0.95838577 0.88786674 0.92096823 1.0111248 1.1227734 1.0771039
0.5016312 0.94168437 0.84160686 0.99025583 0.944176 0.94718355 0.94316447 0.9724007
0.9400425 0.71674913 1.080828 0.99481976 0.86805785 0.8429404 1.0467814 0.95741576
1.0693457 1.1059434 0.96607333 0.9025671 1.0527078 0.7821959 0.911859 0.75609654
0.99110246 0.8751179 0.7838315 1.0270159 1.0720922 0.97982055 1.0493343 0.8187936
0.92735267 1.0418371 1.0343155 0.9191591 1.0242709 1.0351185 0.645892 0.96815574

bn1.bias f4 [7296]
00000000: f5f5 d73d f26f 0d3d 387a 79be 3a71 03be
00000010: 1102 e3bc c4c0 7b3d 082b 133e e701 bf3d
00000020: cf07 38be 5539 11be f9b4 043e 0529 273d
00000030: 67e0 75bd 7043 83b9 7dba db3b d26a 48be
00000040: e83b 8c3d 9959 863d e14f fcbd 551b e4bd
00000050: cddd 4fbe 0f93 42bd 091a cfbd 8807 7bbe
00000060: 259e 9c3d 9930 87bd 7ad1 3a3e 779b 3bbd
00000070: f10b 4fbe 1554 40be 2122 6bbd 3260 26be
00000080: 1fa5 13bc ec2f 15bd 13e1 bb3d 09a6 133e
00000090: 8595 d6bc af78 08be ff0e 1dbe c08a abbe
000000a0: cadf fb3c 83fb 19be a6cb 443d 9f48 b7bc
000000b0: 6950 49bd e98f 90be 38d6 b8bd 99d9 383c
000000c0: dc3b 12be ad99 353e dbca db3c 43f2 6ebd
000000d0: 5ad2 6b3d 924e 58bc 64f2 90be f9b1 46bd
000000e0: f73c a63c 28de c3bc 52d2 85bd 414d 9c3d
000000f0: 92ed 82be bc86 71bd c083 6ebd c83a 12be
00000100: 2d4f 17be 5360 39be afe7 71be 9cd3 9c3c
00000110: 35f1 debd 03fe 21be ff81 7abd 2ff3 c7bc
00000120: 2d46 403e d5ac 04be 1f02 03be 97e0 afbd
00000130: 7fe9 90bd e40d 13be 2e68 97be 08df 4ebe
00000140: 2a0b f5bc cda4 e5bd 559f 183d 5ffa babd
00000150: 8803 783c 2ba7 eebc 59a2 c5bd 3c0e 8ebd
00000160: 9d20 22be 8084 a1bd 3e6f 7bbe 0558 8bbe
00000170: a174 4bbe cff8 3ebd 36af b23d 3c51 37be
00000180: 7602 5abe 39e4 c8bc d39c 6cbe 5e76 12be
00000190: 41d1 edbd 18bb c7bd bd06 fd3b c110 1b3d
000001a0: aceb a43d 22d0 743d 985e 7dbe a108 92bd
000001b0: 4246 0dbe e0b7 643c 6a64 f9bd d16d 603e
000001c0: 2273 39be 96fc a4bd e75e d4bd a8a0 6ebe
000001d0: dd67 94bd cf9c 113e fb9d a7bd 8dad 98be
000001e0: 2267 883d 199d a63d bc55 44bd 8ab3 80be
000001f0: a1a8 1ebe 3cf8 bbbc 5b5c 06be 08e7 173e
00000200: 74fc bebd 1ce9 13be 27c0 3dbc d755 fabd
00000210: ee43 d53a bcec e8bb 5d93 d2bd 1fc7 75be
00000220: 64f6 4dbd 20da 9ebd d213 43bd f24e 6dbd
00000230: 6633 29be 4f4f 2d3d e56b 18be c418 0d3c
00000240: 5b4b 66bc 4db7 2c3d c82d ce3c 57a4 b23d
00000250: 2d4c 22be f2db 87bd 22cd 3dbe ece1 6abc
00000260: babb 783d 4119 0fbe c983 84bd 6676 293d
00000270: a6c4 1fbd f8fc bfbd 40a2 1bbe 91ca 57bd
00000280: 8a44 adbd ad90 b0bd b992 063d e507 07be
00000290: 82d9 b3bd c264 f1bd 50f0 d9bd 7c1e 2cbe
000002a0: d788 993d 224c 2bbe e18c fbbd 037d 04be
000002b0: 8a3d 1bbe cf5d 8bbd 5ee6 12be 566b 9c3d
000002c0: 5f4f 5bbc 27aa e1bd b268 6abd 1a4a 36bd
000002d0: 7c48 08be 5273 083d 335a ed3d 5c24 00bd
000002e0: 23b1 dc3c 241b 02be 67ac 26be e6cf 93bd
000002f0: 252d 71bd 6839 48be 8664 6fbd fc79 70bd
00000300: 2f87 44be 1a83 87bc 977a 21be 2156 e7bd
00000310: 051e b8bd 538e ea3d 402f 1ebe 8afe 2bbe
00000320: 5b7f 50bd 56a3 0bbe a111 21bd 3aab 05bc
00000330: 86ac 91bd 11d5 e4bd e726 77bd c211 f0bc
00000340: b3b6 35be 73ac 1dbd 4d57 37bd 661c e5bd
00000350: 49e9 90bc f499 d9bd 2825 6dbd fbbb 003d
00000360: 670c a0be 2eb7 03be 948d 05be f191 c93b
00000370: 5823 ca3c b3ca 39bd 1eed 633c dcc7 753d
00000380: d9ae c4bc 1462 15be 8457 a0bc 8cdd 67bd
00000390: c956 18be 907c 34be b406 8bbd cdf1 0abe
000003a0: 6fc9 85bd 4bf2 03be 4c13 a3bd e9c1 2fbd
000003b0: 35c9 093d fdf4 08be 7c39 bdbd 7b42 49be
000003c0: 4ece b4bd aca5 25be 2f08 4dbe 9ff2 b7bc
000003d0: 4027 b6bd 325d cabd d03a 083d 71e2 69be
000003e0: 3abc babd 0133 7fbd 8f1f 0dbd 848f 20be
000003f0: bcdb 893d d9b3 c93d 6a80 26be d58b d7bd
0.105449595 0.034530587 -0.24363029 -0.12836161 -0.027710946 0.061463133 0.14371884 0.09326535
-0.17971729 -0.14182027 0.1295966 0.040810604 -0.06002846 -0.00025036512 0.0067055807 -0.19571999
0.06847364 0.06560058 -0.12319923 -0.11138026 -0.20299454 -0.047503527 -0.10112388 -0.24514592
0.07647351 -0.06601066 0.18243971 -0.04580256 -0.20219399 -0.18782075 -0.057405595 -0.16247633
-0.009011536 -0.036422655 0.09173789 0.14418806 -0.026194343 -0.13327287 -0.15337752 -0.33504295
0.03074636 -0.1503735 0.048045777 -0.022373496 -0.04914895 -0.28234795 -0.09025234 0.011282348
-0.14280647 0.17734404 0.026830127 -0.058336508 0.057573654 -0.013202326 -0.2830993 -0.04850957
0.020292742 -0.023909643 -0.06534256 0.076319225 -0.25571877 -0.058966383 -0.058231115 -0.14280236
-0.14776297 -0.18103151 -0.23623537 0.019143872 -0.1088585 -0.15819554 -0.06115913 -0.024407951
0.1877677 -0.12956555 -0.12793778 -0.08587759 -0.07075786 -0.14360768 -0.2957167 -0.20202267
-0.02991255 -0.11213074 0.037261326 -0.09129786 0.015137561 -0.029132446 -0.09650106 -0.06936309
-0.15832753 -0.078866005 -0.24554154 -0.2721559 -0.19868709 -0.046624 0.08724825 -0.17902082
-0.21290001 -0.024522888 -0.23106699 -0.14302966 -0.11612178 -0.09752482 0.0077217505 0.037857775
0.08052763 0.059768803 -0.24743116 -0.07130552 -0.13796332 0.013959855 -0.121773556 0.21916892
-0.18110326 -0.080559894 -0.10369664 -0.23303473 -0.07246373 0.14219974 -0.08184429 -0.2981991
0.06660296 0.08135433 -0.047933325 -0.25136977 -0.15494014 -0.022945516 -0.13121168 0.14834225
-0.09325495 -0.14444393 -0.011581457 -0.12223404 0.0016270855 -0.007108299 -0.102820136 -0.2400174
-0.050283805 -0.07756448 -0.047626324 -0.057936616 -0.16523513 0.042311963 -0.14884908 0.008611862
-0.014056052 0.042166997 0.025168315 0.087227516 -0.15849371 -0.06633748 -0.18535283 -0.014336091
0.060725905 -0.13974477 -0.064704485 0.04137268 -0.039005898 -0.09374422 -0.15198612 -0.052683417
-0.084603384 -0.08621345 0.03285477 -0.13186605 -0.08781721 -0.11786796 -0.10641539 -0.16808504
0.07496803 -0.16728261 -0.1228273 -0.12938313 -0.15160194 -0.06805002 -0.1434569 0.0763766
-0.013385623 -0.11018782 -0.05722875 -0.044504263 -0.133089 0.033313103 0.1158947 -0.031284675
0.026939934 -0.12705666 -0.16276704 -0.07217388 -0.058880944 -0.19553149 -0.058445476 -0.058710083
-0.19192193 -0.016542006 -0.1576942 -0.11295725 -0.08990101 0.114529274 -0.15447712 -0.16796318
-0.050902706 -0.13636526 -0.039323453 -0.008158499 -0.07112984 -0.11173452 -0.060339835 -0.029305343
-0.17745475 -0.03849454 -0.04476099 -0.11187057 -0.017689364 -0.10625067 -0.057896763 0.031429272
-0.31259462 -0.12862846 -0.13042289 0.006151431 0.024675056 -0.045359325 0.013911514 0.060005054
-0.024009155 -0.14588195 -0.01957298 -0.056607768 -0.14876856 -0.17625642 -0.06788388 -0.13568802
-0.06532561 -0.12885396 -0.07962665 -0.042909537 0.03363915 -0.13374706 -0.0923948 -0.19654267
-0.08828412 -0.1617648 -0.20022653 -0.022454558 -0.08894205 -0.09881057 0.033259213 -0.22840287
-0.091179326 -0.0623045 -0.034453925 -0.15679747 0.06731364 0.09848756 -0.16259924 -0.10524718

bn1.running_mean f4 [7296]
00000000: 7237 3540 df89 02bf 1fc2 2340 a449 3340
00000010: b825 ff3f 8b60 21c0 d6b8 633f a9b7 2cbf
00000020: 4b99 bebe 8620 f33e f9f9 8a3f 19be 5cbf
00000030: 543f f93d 5c42 503f 61c0 1440 fdf1 7e3e
00000040: ffe8 da3f 31e2 38bf 1a81 933f 7d89 1040
00000050: 20ed 81bf 2351 533e 28f4 c73f 65d6 0a40
00000060: 5f4c 493f 0186 533f 70e4 453f 4ced 2a3e
00000070: a0b3 5440 93cc 783f 6a9e 523f 5c2f 81bf
00000080: 6639 cc3f a8d3 2640 39ac 593f e8c6 1840
00000090: e828 2240 f692 fabe 20b9 d83e 0ef9 663c
000000a0: dc6e 4e3f dd59 1340 cdab 3cc0 3552 993f
000000b0: 258a 5e40 6373 f23f 3226 873f 068c b8bf
000000c0: 261c 893f 7691 9e3f 5257 8ebf 83e9 c1bf
000000d0: 7af6 42bf 549a 583f a7c7 91bf b453 e43f
000000e0: 3107 a6be 3580 9a3f ae69 aa3f 2aca 5640
000000f0: 7874 933e 48e2 0540 d3fe 8440 37c1 8abf
00000100: ad59 d43f 8abe ca3f 0be2 f9bf 9ee5 2fbf
00000110: f031 10c0 f53e 17c0 45a1 fe3f 63ec c33f
00000120: c5ec 06c0 d262 803f d94b 1540 6217 1240
00000130: 99f7 b3bf a261 a83f 7cd2 0b3f ece5 c73f
00000140: 1f61 44bf 8557 20c0 3c79 77be e4db 2d40
00000150: 991b c3bf c2fb a0bf 3604 d13f 9073 b43f
00000160: 650d 0f40 180d 413f 446f aa3e 5df6 273f
00000170: 0747 8abf 9195 4bbf 3c9c 723f b614 1f3f
00000180: ae5e 30bf bc9f 2ec0 3c9b 6b3f 34c2 be3f
00000190: 230a 823f f5a3 133f 6fca 2640 9733 5d40
000001a0: fa1d b940 637d 393f 2282 d13f d573 563f
000001b0: 6f05 9c3f ed85 03c0 8551 bf3f c8a6 c4be
000001c0: 81e9 c73f 6600 39bf f78c 9ebe 844a e73e
000001d0: 412c 96bf 9d11 e73f 58d2 013e dd1c 213f
000001e0: 8cc6 1abe 9f74 51bf 7f34 8b3f 58ca a13e
000001f0: a55a 6c3f 345a 173f 32f1 a8bf cb70 ef3f
00000200: a9c0 463d da5c 5a3f 42f9 2dc0 f84d 07c0
00000210: 1da2 29bf 9744 7a3f 7b9d 8bbf fdaf b13f
00000220: 6516 c6be ecf1 fe3e 9241 d6bf cf74 b63f
00000230: dafa 63bc df96 6ebf 4302 19c0 9c0e c93e
00000240: ad56 a73e 76ac 2c3f 3c84 a6bf 87e0 08bd
00000250: 1f9e c63f f81a c9be 05e0 de3e 7a6a 8a3c
00000260: 3da0 89bf f441 4a3f 4133 03bf 0e05 773c
00000270: 713b 1ec0 a13b ea3c 3c80 8abf 34f7 8c3f
00000280: cdcd 9abf fdc4 5dbf d356 c13e 560f b0be
00000290: e8cb 13c0 266b 0c3f 94a5 933f e5eb 633d
000002a0: 7574 6dbe 2687 c7bf db00 c63f ba0a c3bf
000002b0: 3410 2bc0 3117 98bf bf46 96be 4ea6 663e
000002c0: d3cc b9bf 0f32 22bd c6d5 333f 8dad 233e
000002d0: 5ede 9e3f 2d8f 8cbf 2dc5 9e3f 4e4a efbf
000002e0: c6ce 46bd f334 b4bf 6eb9 22bf 0b63 7abf
000002f0: 6114 fcbe 9bb5 acbf a77b 2cc0 3b42 d9be
00000300: 64a3 17be 93fa 4bbe 2901 f93f 377d a63e
00000310: ed28 f93f 3568 283f 3648 4dbf 9311 bcbf
00000320: 1cd9 fa3f 266f adbf 963e 5ebf 5e58 b2bf
00000330: 302d 3b3f 61d0 a6bf e9b9 223f c917 eebf
00000340: 1592 733f 6b57 533e 8fa6 403e 4d58 eebf
00000350: 3315 1a3f 9449 a53f 7fec 8bbf bfe6 56bf
00000360: c6b1 0a3f fd1f 3cbf ed99 b9bf c52d 80be
00000370: 18e2 d13e ea18 313f 5f1d 89bf 6951 17bf
00000380: 073b db3e 834f bb3f c46e 5fbf 0e5a bcbf
00000390: ea70 3cbe 7810 913e ceab 9abf b707 f8bf
000003a0: 58d8 55c0 121f f2be c1d2 e9bf ff08 75bf
000003b0: 4fda 81bf e626 ee3f a88a ebbf c358 523f
000003c0: 48c8 97bf 2271 d53e 5dda 96be 6db4 86bf
000003d0: 51de cd3e 8358 d63c fc13 99be d68b 1d3f
000003e0: 4256 9a3f 707d 973f 1882 8dbf e7fc 893f
000003f0: 43ef 52bf d966 50bf 147a a9bc 9c98 4cbf
2.831509 -0.50991625 2.5587232 2.8013697 1.9933386 -2.5215175 0.8895391 -0.67467743
-0.37226328 0.4748575 1.0857536 -0.86227566 0.12170282 0.81351256 2.3242419 0.24896999
1.7102355 -0.7222014 1.1523774 2.2583916 -1.015049 0.2063642 1.5621386 2.1693356
0.7863216 0.8262635 0.7730169 0.16692084 3.3234634 0.97187155 0.8227297 -1.0092578
1.5955017 2.6066685 0.85028416 2.3871403 2.5337467 -0.48940247 0.4232874 0.014097465
0.8063791 2.3023598 -2.947986 1.1978213 3.4771817 1.8941463 1.0558531 -1.4417732
1.0711715 1.2388141 -1.1120398 -1.5149387 -0.76157343 0.84610486 -1.1389054 1.7838044
-0.32427362 1.2070376 1.3313501 3.356089 0.28799796 2.091936 4.1561065 -1.0840214
1.6589867 1.5839398 -1.9522108 -0.68709743 -2.253048 -2.3632176 1.9892966 1.5306515
-2.1082013 1.0030158 2.3327544 2.2826772 -1.4059936 1.3154795 0.5461805 1.5617042
-0.76710695 -2.5053418 -0.24167341 2.716546 -1.5242797 -1.257683 1.632941 1.4097767
2.2351925 0.75410604 0.33288014 0.65610296 -1.0802926 -0.79525095 0.94769645 0.6214098
-0.6889447 -2.7284994 0.92033744 1.4903016 1.0159343 0.57672054 2.6061056 3.4562738
5.7849092 0.7245695 1.6367838 0.83770496 1.2189158 -2.0550492 1.4946753 -0.38408494
1.5618135 -0.7226623 -0.30966923 0.45174038 -1.1732255 1.805225 0.12677896 0.62934667
-0.15114802 -0.81818575 1.0875396 0.3159969 0.9232581 0.59122014 -1.3198607 1.8706297
0.04852358 0.8529793 -2.7183385 -2.1141338 -0.6626299 0.9776091 -1.0907434 1.3881832
-0.3868896 0.49793947 -1.673876 1.4254397 -0.013914788 -0.9319896 -2.390763 0.3926896
0.32683316 0.67450655 -1.3009105 -0.03341725 1.5517005 -0.39278388 0.43530288 0.016896475
-1.0752026 0.79006886 -0.5125008 0.015076889 -2.472378 0.028592886 -1.0820384 1.101294
-1.2094055 -0.86628705 0.37761554 -0.343867 -2.3093204 0.54850996 1.1534905 0.05564489
-0.23188956 -1.5588119 1.5469011 -1.5237648 -2.672864 -1.1882077 -0.2935085 0.22524378
-1.4515632 -0.03959852 0.7024807 0.15984173 1.2411611 -1.0981194 1.2403923 -1.8694551
-0.04853704 -1.4078659 -0.63564193 -0.9780738 -0.49234298 -1.3492922 -2.6950471 -0.42433342
-0.14808422 -0.19919805 1.9453479 0.32517406 1.9465615 0.6578401 -0.8018831 -1.4692863
1.9597507 -1.3549545 -0.8681425 -1.3933218 0.73115826 -1.3032342 0.63564926 -1.8601009
0.9514478 0.20638816 0.18813537 -1.8620697 0.601886 1.2913079 -1.0931548 -0.8394584
0.5417751 -0.7348631 -1.45001 -0.2503492 0.40992808 0.6917864 -1.0712088 -0.591086
0.42818472 1.463364 -0.8727839 -1.4714983 -0.18402448 0.28332877 -1.2083681 -1.9377354
-3.3413296 -0.4728933 -1.8267442 -0.9571685 -1.0144747 1.8605621 -1.840169 0.8216669
-1.1857996 0.41687876 -0.29463473 -1.0523812 0.40208676 0.026165253 -0.2989806 0.615415
1.2057574 1.1835155 -1.1055326 1.0780305 -0.82396334 -0.81406933 -0.020688094 -0.79920363

bn1.running_var f4 [7296]
00000000: da81 f040 21a7 4340 264b dc41 c20e d641
00000010: 3822 4740 c0c2 fb40 95f3 4440 7ac4 1141
00000020: 66f2 db3f c872 6d40 618a 7841 c638 5340
00000030: c8ed b540 769c 0941 1163 9f41 f85c 2640
00000040: 5971 3a40 f858 0840 735c 5f41 edde 7740
00000050: f0e6 4840 948f 5440 e5ea 7f40 25ad 9b40
00000060: 3062 0c41 751e 8640 7bb3 3b40 7267 3c41
00000070: 6f5e 1142 7502 b840 953a 8540 e8a2 8c40
00000080: b1f6 2141 e0b8 3141 1e12 7f40 1242 0b41
00000090: 9c27 c141 8364 2740 58fc 8540 17d3 fa3f
000000a0: 112f 0241 90dc 5a41 30b7 3a41 a6f9 8041
000000b0: 4302 0f42 e0bb 3441 915d 3b40 e7e9 0440
000000c0: de62 8441 2159 4240 1119 ca3f b41f 0c41
000000d0: b111 6c40 037d 2d41 54c9 7e40 bd70 3741
000000e0: b116 4040 d303 9441 3c9f fa40 8316 ba41
000000f0: 88ea d53f 93af 7540 9ae8 2742 49b7 3040
00000100: d615 4140 eb6e 3740 7e4f 0841 eef7 1440
00000110: ff3e 4141 c4fd ce40 e6dd 6e41 ec61 6e41
00000120: 5734 7441 b7fd 8f40 51b8 9f40 2ab2 9c40
00000130: bed7 7840 07e7 7041 9ee0 d540 73fa 3541
00000140: 7e23 9340 97ec cc40 92c1 913f 0767 bb41
00000150: 1de1 5140 3c30 a640 c614 2441 3081 5841
00000160: 0480 a440 5a72 7940 73bd ce40 1bdf 9040
00000170: f767 3940 7a87 8d40 8323 4541 dc95 4041
00000180: 002e d23f ee5b c840 90b1 4f41 dd01 3f41
00000190: 12c9 8240 cd59 de3f c186 6f41 6eb3 a541
000001a0: 3994 8142 8bbf 8840 f8f1 1941 8fe1 3841
000001b0: 7798 4541 f72c 2a41 fc9d 0e41 1887 9040
000001c0: f374 d440 de99 8340 1fa0 0b40 e953 bc40
000001d0: 5e1f 7040 3bd8 9640 b0a6 2840 d5c4 2b40
000001e0: db9d 1541 5c08 3a40 71b7 2941 d7c6 7840
000001f0: 6227 7741 16ae 4741 db1c 5340 7922 2b41
00000200: 5295 4041 e3f6 7e40 9bf0 1342 ad6c f541
00000210: ab2c 9740 61b9 0341 3e71 b940 f0a3 2541
00000220: 1a34 ce3f a9a7 c140 13c2 9341 ae07 6a40
00000230: 6898 b040 999e 3541 5148 cd41 1f2b 6740
00000240: 93f3 0941 0f3f 5c40 3077 8041 fef5 1f41
00000250: 611f 9440 98ca b540 35b1 cf40 852a ea40
00000260: a0f6 2d41 09be d540 78f1 a040 b0c0 2841
00000270: ad7a 2642 08d2 d840 91b0 c340 69ff e240
00000280: 6a6d 5341 97f3 4d41 a96b 8240 e33f 0641
00000290: af20 e741 8122 9c40 366e 2841 c10d c340
000002a0: cad1 1e41 d422 7141 b8ce 4841 f016 8f41
000002b0: cd3c 2242 e8ad 4641 1343 8c40 d905 7340
000002c0: b503 9c41 b1d0 6c40 60e7 2740 4f38 0d41
000002d0: ff40 cc40 8572 4b41 84b9 8540 a7c4 8141
000002e0: 4694 6540 8d7a aa41 6885 0841 0a4a c041
000002f0: 2372 8540 33f7 8140 f34e 4342 9516 9440
00000300: 8f94 4a40 4c3d 8640 e068 5841 8e32 3940
00000310: 7391 8341 2f49 0f41 a8b6 7c41 9d66 8b41
00000320: c61e 9c41 9f7c 9540 7b7e ca40 593c ac40
00000330: 181e 8940 24f3 8241 66ef 1641 6430 8241
00000340: 0922 b840 d387 e540 59e2 4340 12be d741
00000350: 2fa6 a540 c0cd 0341 2ce3 3a41 32c7 7641
00000360: 3c87 2f41 21db ac40 6d01 1841 3491 9e40
00000370: b11d 8b40 1889 8440 5f70 6641 4cfa 4c41
00000380: 0a2a 5740 7d0a de40 97f5 6341 4436 8441
00000390: ed12 cd40 75d5 3640 d5e9 7b41 b43a b441
000003a0: 3b22 8942 16ac 8a40 0470 4f41 00e6 5c41
000003b0: 5892 7941 1044 6241 75ed 6541 1d95 8b40
000003c0: 5b9e f440 9da8 cb40 4d99 0241 acf4 1141
000003d0: ea9a 8d40 1065 bd40 1c9e 8540 09f9 f240
000003e0: a909 5441 6f7e 2140 f135 5c41 1e63 fd40
000003f0: 98c6 8441 0a6d 5e41 d6c3 bf40 64c2 3541
7.515851 3.0570757 27.536694 26.757206 3.1114635 7.867523 3.077367 9.110468
1.7183349 3.7101307 15.533784 3.3003402 5.685276 8.600698 19.923372 2.5994244
2.9131682 2.1304302 13.960071 3.8729813 3.1390953 3.3212633 3.9987118 4.864886
8.773972 4.191218 2.9328296 11.775255 36.34222 5.7503 4.163401 4.394886
10.122727 11.1076355 3.9854808 8.70363 24.14434 2.6155097 4.1870537 1.959567
8.136491 13.678848 11.6697235 16.121899 35.75221 11.295868 2.9275858 2.0767763
16.548275 3.03669 1.57889 8.75774 3.6885798 10.84302 3.981038 11.465024
3.001385 18.501867 7.831938 23.260992 1.6712198 3.8388412 41.97715 2.7611868
3.0169578 2.866145 8.519407 2.3276324 12.07788 6.4684772 14.929174 14.898907
15.262778 4.499721 4.9912496 4.8967485 3.8881679 15.056403 6.683669 11.373645
4.5980825 6.4038806 1.1387198 23.425306 3.2793648 5.193388 10.255072 13.53154
5.140627 3.8976045 6.460626 4.5272346 2.8969705 4.4227877 12.32117 12.036587
1.6420288 6.261222 12.98085 11.937955 4.0870447 1.7371155 14.970399 20.712612
64.7895 4.2733817 9.621574 11.555068 12.349723 10.635978 8.91357 4.516491
6.639276 4.1125326 2.181648 5.885243 3.7519145 4.7138953 2.6351738 2.6838887
9.351039 2.9067602 10.6072855 3.8871362 15.447115 12.480001 3.2986362 10.695916
12.036455 3.9838188 36.984966 30.678064 4.7242026 8.2327585 5.7950735 10.352524
1.610965 6.0517163 18.469763 3.6567187 5.5186043 11.35122 25.66031 3.612007
8.621966 3.4413488 16.058197 9.997557 4.6288304 5.6809807 6.4903817 7.3176904
10.872711 6.6794477 5.029476 10.547043 41.6198 6.7756386 6.1153035 7.093678
13.214212 12.87197 4.075642 8.390597 28.890959 4.879212 10.526907 6.095429
9.926218 15.071003 12.550468 17.8862 40.559376 12.417458 4.383188 3.797232
19.50181 3.7002375 2.623497 8.826247 6.382934 12.715459 4.178896 16.221022
3.587175 21.30984 8.53257 24.036152 4.1701827 4.0614257 48.8271 4.6277566
3.1653173 4.1949825 13.525604 2.8937106 16.44602 8.955367 15.794594 17.425104
19.515026 4.6714625 6.3279395 5.3823667 4.2849236 16.368721 9.433447 16.273628
5.7541547 7.17283 3.0606902 26.967808 5.176536 8.237732 11.680462 15.423632
10.970516 5.401749 9.500348 4.955225 4.3473744 4.141735 14.402434 12.811108
3.3619409 6.9387803 14.247458 16.526497 6.4085603 2.8567784 15.744588 22.528664
68.56686 4.3335066 12.964848 13.806152 15.598228 14.141617 14.370473 4.3619523
7.6443305 6.3643327 8.162427 9.122234 4.4251604 5.9185867 4.1755505 7.5929
13.252358 2.523342 13.763169 7.9183493 16.59697 13.901621 5.9926558 11.359959

gcbs.0.gc1.weight f4 [128, 128]
00000000: 102b 973d 041a b4bd 5a9a ae3d 0cde 263e
00000010: 6d20 86bc 6107 063c c55a 56bd f69e 91bd
00000020: f7f0 84bc b174 e93c 4dbf de3c 7fb7 bd3d
00000030: fd88 0c3d 90f2 83bb a968 83be 4fad 933d
00000040: 0e28 c33b c283 2d3d b257 213d ecc4 693e
00000050: a813 b9bc 8375 93bd e020 3cbd c8da ed3d
00000060: 7db3 013e 7f8c c2bd 4d99 cc3d 11d4 e7bb
00000070: fdf4 2c3d a3c9 64bd c734 fcbc a4f8 dd3c
00000080: 5f53 103e c579 13bd 4805 353d 09a3 3f3d
00000090: f624 4e3d 0631 1e3e 5653 d4ba 8931 873c
000000a0: d964 fe3c 683b f2bd c149 eabd 7f79 0b3e
000000b0: 7608 89bd c5b0 37bc 2702 053d 602d 263e
000000c0: 4ba4 8c3d 8a18 abbd 4a5f 123d 8313 a73d
000000d0: 53ef fcbd 2105 203b e762 643e 586a fd3d
000000e0: 77c5 98bd b854 5a3d 46cc 2f3e 8ffd 49bc
000000f0: fc92 17bd 4d6f 273c 3130 883d b0aa 063d
00000100: a145 203e 8836 a33d 98b3 b73d cd1b 183e
00000110: b0eb cfbc 0c8a 0d3d a054 773d d581 0abe
00000120: c0d6 1a3e e0b4 063d 0480 be3d 9524 f53c
00000130: 2c17 853e 1fea 883d d53e 433d 0dab 543e
00000140: d6a7 4c3d 3397 8a3d 506d a43d b588 e43d
00000150: 7e61 193e 071d f43d 8891 49bd cad4 6bbb
00000160: eef7 8abd 6d2d 253e 7f37 713d a21e bbbd
00000170: e1af a4bd 1ecf e23d 8528 1ebd ed0b cabd
00000180: 8b37 2a3e 0491 ce3b 2541 ff3d e6e5 cb3b
00000190: d410 563b cbd3 303e 424d bf3d dbe3 ee3d
000001a0: 64e6 243d 3f19 043e db51 6c3d aeb1 863d
000001b0: 5d10 b73d 455f cfba 2d7c 313d 5017 b6bc
000001c0: 0612 d23d 7c28 ad3d 9fe3 ab3d c33a 893d
000001d0: 9a60 f7bd d865 8c3c 2869 133e fa46 9b3b
000001e0: b12e c03d e90b 49be 3437 3b3d 694e 663d
000001f0: f0e9 5fbc 6d20 723e 30a6 ae3c 21f6 e13d
00000200: 0667 65bc 0d25 36bd 93f7 adbc 6bce 0d3e
00000210: 610e 8ebd 1f36 c4ba 75a8 703b f01f 1abe
00000220: e7ee b1bd 80d9 093d f55e ecbc 180b 07be
00000230: 0077 50be 1e40 b7bd 8602 dcbd 6dc6 66bd
00000240: 6afb 88bd 5c95 0a3e 8ab4 69bd cfa5 5b3d
00000250: 216f 873a dc9a 983c 563b 9fbd 869e 4bbb
00000260: 9803 173d 7015 48bd 793d 5e3c 73fb bf3d
00000270: 48bd b43b 3bfc 1fbe c3ef 4e3e 9887 a9bb
00000280: 2fd2 86bc 64fe c8bd 73e0 1bbc 1a7b 1bbd
00000290: 82a1 3a3d 13c0 56bd 8c0e 37bd 22cb 8ebd
000002a0: 58e2 5bbd 53b6 9abd 2e61 013d da7b 0ebd
000002b0: 52e7 9f3d a224 5bbd 32bb 15bd 4f84 1abd
000002c0: 9c31 e6bd d3ef 9dba c3ff d63d e058 78bd
000002d0: e5b0 2ebe c06d 28bd c19a 893c f3c7 01bc
000002e0: ee23 463d e213 0c3d 853a b73b 6e9f 51bd
000002f0: 64a7 c9bd 6136 9e3c 68a6 413d 9787 10bd
00000300: 366e aebd 8b90 4c3d ae8a b03c e7fe aabd
00000310: a2fa da3c 0833 6e3d 244e 653d b123 20bd
00000320: dcbe a2bd 8042 d23c 645e a33c deb2 16be
00000330: f661 803d 8de8 e3bd 3aa6 c0bd 5a08 4ebd
00000340: a899 ec3c f505 e9bc d7f9 1fbe 8a47 013c
00000350: 7a42 1b3e b9dd b5bc 27d9 a2bd 2dad 243d
00000360: f9f6 3b3d f1d0 553c 8e94 203d 42fe 923c
00000370: bd58 ccbd 9ecb 6bbb ae66 cebd 7147 e1bc
00000380: 5051 a3bd fe0c e43d 30bf 0a3e 2797 9c3d
00000390: 9494 363d 8c1d 44bc 7ea1 df3d cea3 7c3a
000003a0: b309 02be 1619 183d 2175 373e 3306 1f3d
000003b0: e4c9 c6bd 662f e6bd a47f 62bc 24a2 1abe
000003c0: 4c8a 8f3d 90df 60bd c0df 8fbd 3f91 d3bc
000003d0: 3fe7 893d 9b82 cd3d 9a11 483d 7d59 54bd
000003e0: c19f 88bc 79c2 c93d a460 42be 2ff4 af3d
000003f0: 0472 c6bd 6b65 d43d a27f df3b e827 e83c
0.073812604 -0.087940246 0.08525534 0.16295642 -0.016372884 0.00818047 -0.05233266 -0.071103975
-0.016228182 0.028498026 0.027190829 0.09263515 0.03431033 -0.0040267184 -0.25665787 0.0721079
0.0059557026 0.042361982 0.039390273 0.22829026 -0.02259238 -0.07200148 -0.04592979 0.11613995
0.12666126 -0.09499454 0.09990177 -0.007074841 0.042225827 -0.05585636 -0.030786885 0.0270961
0.14094304 -0.0360048 0.04419449 0.04678634 0.050328217 0.15448388 -0.0016199152 0.016503112
0.031053947 -0.11827737 -0.11439849 0.13620566 -0.06691067 -0.011211579 0.032472756 0.16228247
0.06867274 -0.0835429 0.035735406 0.081580184 -0.12350335 0.002441712 0.22303353 0.12373799
-0.074595384 0.05330345 0.17167768 -0.0123285195 -0.03700541 0.010219407 0.06649817 0.032877624
0.15651561 0.079693854 0.08969802 0.14854355 -0.02538094 0.03455548 0.06038344 -0.1352609
0.15120983 0.03288734 0.09301761 0.02992467 0.2599424 0.0668528 0.047667343 0.20768376
0.04996475 0.0676712 0.08028662 0.11158887 0.14978597 0.11919599 -0.049211055 -0.0035984986
-0.0678557 0.1613061 0.058890816 -0.09136702 -0.08041359 0.11074661 -0.03861286 -0.09865556
0.1662275 0.0063039083 0.12463597 0.0062224744 0.003266384 0.17268293 0.09340908 0.11664554
0.04025878 0.12900256 0.05769525 0.065768585 0.08938668 -0.0015821239 0.043331314 -0.022227913
0.10257344 0.084549874 0.08393025 0.06700661 -0.12078972 0.017138407 0.14395583 0.0047386857
0.09383906 -0.1963345 0.045706943 0.05622712 -0.013666615 0.23645182 0.021319479 0.110332735
-0.0140016135 -0.044468928 -0.021236217 0.13848273 -0.06936336 -0.0014969743 0.0036721502 -0.15051246
-0.08688145 0.03365469 -0.028853873 -0.13187826 -0.20357895 -0.08947776 -0.10742669 -0.056341577
-0.066885784 0.13533539 -0.05705694 0.053624924 0.0010332802 0.01862853 -0.07774989 -0.003106983
0.03686866 -0.04884857 0.013564461 0.09374132 0.005515728 -0.15623562 0.2020865 -0.0051736347
-0.016457645 -0.09814146 -0.009513962 -0.037959196 0.045564182 -0.05242927 -0.044691607 -0.06972338
-0.053682655 -0.07554307 0.03158682 -0.034786083 0.07807793 -0.053501733 -0.036555476 -0.037723836
-0.11239931 -0.0012049623 0.104980014 -0.060631633 -0.17059667 -0.04112029 0.016797425 -0.007921207
0.04837411 0.03419865 0.005591693 -0.051177435 -0.0984638 0.01931304 0.047277838 -0.03528556
-0.08517115 0.049942534 0.021550503 -0.083494 0.02673084 0.058154136 0.055982724 -0.039096538
-0.0794656 0.025666475 0.01994247 -0.1471667 0.062686846 -0.1112834 -0.09406705 -0.050300933
0.028881863 -0.028445223 -0.1562265 0.007890591 0.15162078 -0.022200452 -0.07951575 0.040204216
0.04588983 0.013050304 0.039204173 0.017943505 -0.09977863 -0.003597952 -0.10078178 -0.027499886
-0.079744935 0.111352906 0.13549495 0.076460175 0.04457529 -0.011969935 0.10919474 0.0009637446
-0.12699012 0.0371333 0.17915775 0.03882427 -0.09706476 -0.11239509 -0.013824377 -0.15100914
0.070088 -0.054900706 -0.07025099 -0.025826095 0.0673356 0.10034677 0.04884491 -0.051843155
-0.01667774 0.09851546 -0.18982178 0.08591496 -0.096897155 0.103709064 0.006820635 0.028339341
